pretrained_models/params.pt (torch, 12926 bytes, 18 tensors)

conv_temporal.weight f4 [8, 1, 1, 64]
0	0xbdbfdc3e	-0.0936818
1	0x3a82a733	0.0009968042
2	0x3e32c6b3	0.1745861
3	0xbd88289d	-0.06648371
4	0xbdd4d18b	-0.1039153
5	0x3dd7961e	0.105266795
6	0x3cabd73b	0.020976653
7	0x3c152ddd	0.009105173
8	0x3c8b48a9	0.01700242
9	0xbd82c946	-0.06386046
10	0x3dc5af8b	0.09652623
11	0x3db83df0	0.08996189
12	0xbc34741c	-0.011014011
13	0xbdbfb681	-0.09360982
14	0xbd88865c	-0.06666252
15	0xba6ebb2b	-0.00091068697
16	0x3e169eb6	0.14708981
17	0x3dbcd0aa	0.09219487
18	0xbe029c34	-0.127549
19	0x3d71c8b3	0.059029292
20	0x3e2d5153	0.16925554
21	0xbeb91995	-0.3615233
22	0xbe89ff86	-0.2695276
23	0x3ebad71d	0.36492243
24	0x3f1545aa	0.58309424
25	0xbdb867f8	-0.090042055
26	0xbf0b325c	-0.5437372
27	0xbf0a521b	-0.54031533
28	0xbb947165	-0.0045301192
29	0x3ee12227	0.4397137
30	0x3f1272b6	0.57206285
31	0x3e363be1	0.1779628
32	0xbcf0b3e3	-0.029382652
33	0xbe2832cf	-0.16425632
34	0xbe8e684d	-0.2781395
35	0xbe85cf54	-0.2613474
36	0xbd26e8c2	-0.04074932
37	0xbd5273a4	-0.051379815
38	0x3db6d9e2	0.089282766
39	0x3e42712b	0.18988483
40	0x3e217c57	0.15770088
41	0xbcae9e7a	-0.021315802
42	0xbcf6754c	-0.030085228
43	0xbdf1883e	-0.11793564
44	0x3d47dfd0	0.04879743
45	0x3b684020	0.0035438612
46	0xbd766132	-0.060151286
47	0xbd5232b3	-0.05131788
48	0x3dfa7e1b	0.12231084
49	0x3daeaccd	0.08529053
50	0xbd637063	-0.055527102
51	0xbbcbe668	-0.006222535
52	0xbbe9b639	-0.0071323183
53	0xbce9e943	-0.02855361
54	0xbdeff2f2	-0.1171626
55	0xbd061a95	-0.032740194
56	0x3ddc7010	0.10763562
57	0x3e31472c	0.17312306
58	0xbd75f39e	-0.060046785
59	0xbced1080	-0.028938532
60	0xbb997a9f	-0.004683807
61	0x3cee70a1	0.02910644
62	0x3e0a8762	0.13528207
63	0xbe0f94b7	-0.14021574
64	0x3e1d2e68	0.15349734
65	0xbe6f5d40	-0.23375416
66	0x3df6320e	0.12021266
67	0x3e9645d1	0.2935014
68	0x3d4c794a	0.049920358
69	0xbd1a9018	-0.037735075
70	0xbae32742	-0.0017330425
71	0x3df799c3	0.120898746
72	0x3d80bbba	0.06285806
73	0x3c879a94	0.0165532
74	0xbe0ebb07	-0.13938533
75	0x3db25d63	0.08709218
76	0x3d9d4d9d	0.07680819
77	0xbdaf1996	-0.08549802
78	0xbc06ce0c	-0.008227836
79	0x3cb9d91b	0.022686532
80	0x3cf107a4	0.029422589
81	0xbdd1fbd5	-0.10253111
82	0xbc201b78	-0.009772174
83	0x3b8a1abd	0.004214613
84	0x3b140b5e	0.0022589783
85	0xbd5c321f	-0.053758737
86	0xbd5fdea3	-0.054655682
87	0xbbea68ac	-0.007153591
88	0x3cf33794	0.029689588
89	0x3d399c15	0.045314867
90	0xbc8ba219	-0.017045068
91	0x3d849b28	0.06474906
92	0xbdf725d9	-0.12067766
93	0x3e1774df	0.14790677
94	0x3bc33332	0.0059570307
95	0xbdc7878a	-0.09742649
96	0xbd52c7e3	-0.051460158
97	0xbe002bd1	-0.12516715
98	0x3dade5b0	0.08491075
99	0x3dcfaf6b	0.1014088
100	0xbddd599e	-0.10808109
101	0xbe1e035a	-0.15430966
102	0x3da4ab90	0.080405354
103	0x3e899e06	0.26878375
104	0x3c7b56b6	0.015340498
105	0xbe0637b3	-0.13107185
106	0x3e22f95c	0.15915436
107	0x3e24dd67	0.16100083
108	0x3e24d2f4	0.16096097
109	0x3e28468b	0.1643316
110	0xbe0aeef8	-0.13567722
111	0xbdf1a3fd	-0.117988564
112	0x3e565b9b	0.20933382
113	0xbe221bda	-0.15830937
114	0xbeb564c8	-0.35428452
115	0xbdc95221	-0.09830118
116	0xbe6839ba	-0.22678271
117	0xbe1f0b0d	-0.1553156
118	0xbcd55114	-0.026039638
119	0xbe4728e0	-0.19449186
120	0x3d6137b9	0.054984782
121	0x3b9e6166	0.004833388
122	0xbe398853	-0.1811841
123	0xbd186c93	-0.03721292
124	0x3ec49cbb	0.38400826
125	0xbca8e8e8	-0.02061887
126	0xbeb83040	-0.35974312
127	0x3ec9a023	0.39379987
128	0x3e24cf06	0.16094598
129	0xbe283a2b	-0.1642844
130	0x3e14d352	0.14533737
131	0xbbfd6b98	-0.0077337734
132	0x3c34ccd3	0.011035162
133	0xbcce8290	-0.025208741
134	0xbccb87aa	-0.024844963
135	0xbd4523b3	-0.04812975
136	0x3d9d6473	0.07685175
137	0xbdf09afb	-0.1174831
138	0xbdd633f6	-0.104591295
139	0x3e2c347c	0.16816896
140	0x3dff2d62	0.12459828
141	0xbe3d3257	-0.18476234
142	0xbea0479c	-0.31304634
143	0xbdc8343b	-0.09775587
144	0x3da7370f	0.081647985
145	0xbde4dfe8	-0.11175519
146	0xbcad2b66	-0.021138858
147	0xbcb04ac9	-0.021520035
148	0x3dca8107	0.09887891
149	0x3dd25965	0.10270957
150	0xbc33c24c	-0.010971617
151	0x3e456a46	0.19278821
152	0xbd4b05d0	-0.04956609
153	0x3dc9d6f1	0.0985545
154	0x3dc99fac	0.09844908
155	0x3d8d52b5	0.06900541
156	0x3c822c92	0.015890393
157	0x3d8e648c	0.069527715
158	0x3d86fdbc	0.06591365
159	0xbcf791af	-0.030220835
160	0x3d211dd1	0.039335076
161	0x3cb48b61	0.022039117
162	0x3d2a8053	0.041626286
163	0x3d914e22	0.07094981
164	0x3e27445a	0.16334668
165	0xbe528d6e	-0.20561764
166	0xbe2f6aff	-0.1713066
167	0x3e0a10eb	0.13483016
168	0xbd193b66	-0.037410162
169	0xbe60c585	-0.21950348
170	0xbe1b0aa0	-0.15140772
171	0xbdb91269	-0.090367146
172	0xbe6fcb99	-0.2341751
173	0xbe1b7f92	-0.15185383
174	0xbe35d771	-0.17757966
175	0xbe11e8a2	-0.14248899
176	0xbd163a67	-0.03667679
177	0x3e3d5b4d	0.1849186
178	0x3e56ce51	0.20977141
179	0x3e42812d	0.18994589
180	0x3de55be6	0.11199169
181	0x3e46c1ff	0.19409941
182	0x3e225372	0.15852144
183	0xbd2021eb	-0.039094847
184	0x3ddbbd6b	0.10729488
185	0xbd1f8ae1	-0.038950805
186	0x3d126c08	0.035747558
187	0x3ba4b835	0.005026842
188	0x3c98cd90	0.018652707
189	0x3c931284	0.017953165
190	0x3e0c811a	0.13721123
191	0xbec6c623	-0.3882304
192	0xbea84c77	-0.32870838
193	0xbcfe69d3	-0.03105632
194	0x3e2752ef	0.1634023
195	0x3e44c58d	0.19215985
196	0xbda976cb	-0.08274611
197	0x3c96238a	0.018327493
198	0xbc0afe3e	-0.008483468
199	0x3d96f449	0.073708124
200	0x3dec9034	0.11550942
201	0x3c2ef800	0.010679245
202	0x3dbb4cdc	0.09145519
203	0xbc9d0c2a	-0.01917084
204	0x3cad29a7	0.021138025
205	0x3e01c62a	0.1267325
206	0xbcfd2c6c	-0.030904971
207	0xbdd7264f	-0.10505354
208	0x3e5e2d52	0.21696976
209	0x3e6300e8	0.22168314
210	0xbddecc6f	-0.10878836
211	0xbdddf0a6	-0.10836916
212	0x3d50a897	0.05094203
213	0x3e1320fa	0.14368048
214	0x3cd198e4	0.0255856
215	0xbc91197e	-0.017712351
216	0x3bc9b98b	0.0061561516
217	0x3d97112a	0.07376321
218	0x3de7885f	0.113053076
219	0x3e5b201e	0.2139897
220	0xbe24e48d	-0.1610281
221	0x3de85531	0.11344374
222	0xbbfd2044	-0.0077247936
223	0x3d6d57a7	0.05794492
224	0x3d19153f	0.037373777
225	0xbcb77e15	-0.022398988
226	0x3e50d323	0.20393042
227	0xbdb5e83d	-0.088821866
228	0xbe079ba7	-0.1324297
229	0xbaa81be8	-0.00128257
230	0x3e05c536	0.13063511
231	0x3b96a573	0.00459736
232	0x3d0927e8	0.033485323
233	0x3e8877f3	0.26654014
234	0x3ddea6a3	0.10871627
235	0x3d8086bb	0.06275698
236	0x3e5b97b5	0.2144459
237	0x3d9c0328	0.076177895
238	0xbe19856b	-0.14992301
239	0xbd9c0e8c	-0.07619962
240	0xbe07372f	-0.13204645
241	0x3dc0c428	0.09412414
242	0x3e211e2b	0.15734164
243	0xbce8abe3	-0.028402274
244	0xbdb28200	-0.08716202
245	0x3d4729e0	0.04862392
246	0xbdf2c019	-0.11853046
247	0xbf010db3	-0.5041153
248	0xbd5da42a	-0.054111637
249	0x3da23e49	0.07922036
250	0x3e110a49	0.1416408
251	0x3ea41bec	0.32052553
252	0x3f11f3f4	0.5701287
253	0x3e0f24e5	0.13978918
254	0x3d1ba8fe	0.03800296
255	0xbe09f4b4	-0.13472253

bnorm_temporal.weight f4 [8]
0	0x3f840bfc	1.0316157
1	0x3f8287f9	1.0197746
2	0x3f8186e2	1.0119288
3	0x3f81387b	1.0095361
4	0x3f7e632b	0.9937007
5	0x3f850c5c	1.0394397
6	0x3f8756f0	1.0573406
7	0x3f845251	1.0337621

bnorm_temporal.bias f4 [8]
0	0xb4b9680b	-3.4534636e-07
1	0x33b9e498	8.656315e-08
2	0xb3826f46	-6.073837e-08
3	0x334b71de	4.7368182e-08
4	0x3348127c	4.658294e-08
5	0x34b162cf	3.3040712e-07
6	0x338c1616	6.5232754e-08
7	0x340da81a	1.3192803e-07

bnorm_temporal.running_mean f4 [8]
0	0xbaace372	-0.0013190343
1	0x3c0adb12	0.008475082
2	0xbc4aaf16	-0.012370845
3	0xbc9c20b4	-0.019058563
4	0x3c454071	0.01203929
5	0x3ba347c7	0.0049829218
6	0xbc993189	-0.018700378
7	0x3cad4f93	0.021156108

bnorm_temporal.running_var f4 [8]
0	0x42ee0f84	119.030304
1	0x428eaa70	71.332886
2	0x42ab358d	85.60459
3	0x42bf60e2	95.689224
4	0x43155d16	149.36362
5	0x42c46c9c	98.21213
6	0x43156ef8	149.43347
7	0x4312910d	146.5666

conv_spatial.weight f4 [16, 1, 19, 1]
0	0xbbba1b64	-0.0056795347
1	0x3ba23e8b	0.0049513034
2	0xbd1dd172	-0.03852982
3	0xbd076a8f	-0.033060607
4	0xbd4baba4	-0.049724236
5	0xbd15981b	-0.036522012
6	0x3d8351dc	0.06412098
7	0x3c9e6d2f	0.019339172
8	0xbdd558a1	-0.10417295
9	0x3e287bea	0.1645352
10	0xbe854009	-0.26025417
11	0x3d9bb1db	0.076022826
12	0xbd07744f	-0.033069905
13	0x3e6f8b19	0.23392905
14	0xbe94a6b9	-0.2903345
15	0x3ea0e213	0.3142248
16	0xbe6e7ac7	-0.23289023
17	0xbeb42637	-0.35185406
18	0x3f1f39c3	0.6219751
19	0xbd371078	-0.04469344
20	0x3d3a3f4d	0.045470525
21	0x3d1b7371	0.03795189
22	0x3d5f0660	0.05444944
23	0x3ce99333	0.028512573
24	0x3c61cbe4	0.0137815215
25	0x3d582c6a	0.05277673
26	0x3d245268	0.04011765
27	0x3bdbf6c8	0.006712768
28	0xbbea9aca	-0.0071595656
29	0x3db82fbb	0.08993479
30	0x3e8ee0fc	0.27906024
31	0x3dec06ca	0.115247324
32	0x3e605d84	0.21910673
33	0xbec2401f	-0.37939546
34	0xbeb494ed	-0.3526987
35	0x3e8270d2	0.254767
36	0x3dbb27fb	0.09138485
37	0x3d9182f7	0.07105058
38	0xbc08bc7b	-0.0083457185
39	0x3d8b89ab	0.068133675
40	0x3c892735	0.016742328
41	0xbd447a11	-0.047967974
42	0xbbfededd	-0.007778032
43	0x3c8e37bc	0.01736056
44	0xbd3cb2e6	-0.04606905
45	0xbd7fdd95	-0.062467176
46	0xbccc4a99	-0.024937915
47	0x3e0c6e66	0.13713989
48	0xbc995941	-0.018719317
49	0x3dfece1a	0.124416545
50	0xbd738692	-0.059454508
51	0xbcd65a35	-0.026166061
52	0x3d1713f2	0.036884256
53	0xbea3f1a2	-0.3202029
54	0xbebcf6a7	-0.3690693
55	0xbe18fb07	-0.1493951
56	0x3f53c9bd	0.82729703
57	0xbe00133b	-0.12507336
58	0x3d323562	0.04350794
59	0x3eb206ba	0.34770757
60	0x3e032fac	0.12811154
61	0xbdd42db2	-0.10360278
62	0xbe4789eb	-0.19486205
63	0xbd93a82c	-0.072098106
64	0x3dae37f5	0.08506767
65	0x3ea61b1c	0.32442558
66	0xbcafabe9	-0.021444278
67	0x3e90b983	0.28266534
68	0xbe0a4a89	-0.13504995
69	0x3cdaaf0f	0.026694803
70	0xbec656e1	-0.38738158
71	0x3c454ac8	0.012041755
72	0x3e255200	0.16144562
73	0x3ee4d053	0.4469019
74	0xbe5b08d6	-0.2139009
75	0xbecb527e	-0.39711374
76	0xbcb101f5	-0.021607378
77	0xbceffcc3	-0.02929533
78	0x3adf08a3	0.0017016124
79	0xbbe79b14	-0.0070680473
80	0xbcfe4890	-0.03104046
81	0xbe3279bc	-0.1742925
82	0x3c3002a6	0.010742819
83	0x3e12f8db	0.14352743
84	0x3d541c74	0.051784948
85	0xbe44db73	-0.19224338
86	0xbe01e7ae	-0.12686035
87	0x3e6f7163	0.23383097
88	0x3eafba71	0.3432193
89	0x3e7c14c2	0.24617293
90	0xbe5cb5f0	-0.21553779
91	0x3eaf17a8	0.34197736
92	0x3e940d1c	0.28916252
93	0xbef5484f	-0.4790673
94	0xbed9f6b3	-0.4257103
95	0xbd0cfd46	-0.034421228
96	0x3cdf30d8	0.02724497
97	0xbcc39f78	-0.023879752
98	0x3d6dd2a4	0.05806221
99	0xbd6f39ed	-0.05840485
100	0xbdde5bc5	-0.108573474
101	0x3c34e8e7	0.011041856
102	0x3e819588	0.25309396
103	0x3e692ad4	0.22770244
104	0x3e543e0b	0.20726793
105	0x3e36d0ae	0.17853042
106	0x3dbf11d4	0.09329572
107	0xbe79e4a2	-0.24403623
108	0xbea6da34	-0.3258835
109	0xbee44bd9	-0.44589117
110	0xbeeea693	-0.4661146
111	0x3ead354e	0.3382973
112	0x3e585106	0.21124658
113	0x3e48d2f8	0.19611728
114	0xbb86fded	-0.004119626
115	0xbc94fc28	-0.018186644
116	0xbe03cdfd	-0.12871547
117	0x3d617763	0.055045497
118	0x3c682d0f	0.014170899
119	0xbd9e488d	-0.07728682
120	0xbe0a0e3f	-0.13481997
121	0x3e2406d9	0.16018237
122	0x3e06a45c	0.13148636
123	0x3e7a942d	0.24470587
124	0x3ea93f91	0.3305631
125	0xbdad2f2f	-0.08456265
126	0xbe857e67	-0.26073
127	0xbee3672a	-0.44414645
128	0xbe1f73c2	-0.15571502
129	0xbe9ef274	-0.31044352
130	0x3f14edcf	0.5817537
131	0xbde15714	-0.11002937
132	0x3bd195b3	0.0063960194
133	0xbd22621b	-0.039644342
134	0xbd814a1e	-0.06312965
135	0x3e62cc7c	0.22148317
136	0xbd0dc15f	-0.03460824
137	0xbe379683	-0.1792851
138	0x3aef38ea	0.0018251215
139	0x3e828ba9	0.25497177
140	0x3d6a2960	0.057168365
141	0x3e351b2b	0.17686145
142	0x3da3ea3d	0.08003662
143	0x3e642072	0.22278002
144	0xbd5a7183	-0.05333091
145	0xbe8fa51f	-0.28055665
146	0xbf0513ce	-0.51983345
147	0xbe8b468d	-0.27202263
148	0xbe0420c1	-0.1290312
149	0x3f0d9ccd	0.55317384
150	0x3d2d853f	0.0423634
151	0xbda191e7	-0.07889157
152	0xbddf17c5	-0.108932056
153	0x3b951fb8	0.0045509003
154	0x3a85941c	0.0010191235
155	0xbd107985	-0.03527214
156	0xbe067e81	-0.13134195
157	0xbe2a4d6d	-0.16631098
158	0x3e404650	0.18776822
159	0xbdca54d1	-0.09879459
160	0xbd082eab	-0.03324763
161	0x3ef58b75	0.4795796
162	0x3bc218f2	0.005923384
163	0xbd819f08	-0.06329161
164	0xbe84bf5f	-0.25927255
165	0x3d4699e7	0.048486616
166	0x3d2ad3f7	0.04170605
167	0xbd400adc	-0.046885356
168	0xbf0be587	-0.54647106
169	0x3ee19517	0.4405906
170	0x3e9e40e7	0.30908892
171	0xbdd577ea	-0.104232624
172	0xbcd9103b	-0.026496997
173	0xbde5be2b	-0.11217912
174	0xbcd46dc3	-0.025931245
175	0xbcef5c70	-0.029218882
176	0x3dbaac03	0.0911484
177	0x3da2567e	0.07926653
178	0x3e8a9498	0.27066493
179	0x3e0697af	0.131438
180	0x3e994c14	0.29940856
181	0x3df5d071	0.12002648
182	0xbe9d74f8	-0.30753303
183	0x3e90b656	0.2826411
184	0x3eb2c1d5	0.34913507
185	0xbd1424c9	-0.036167894
186	0xbe9738ca	-0.29535514
187	0x3e220b14	0.15824538
188	0xbf0b0d62	-0.54317296
189	0xbe7b2c45	-0.24528606
190	0xba8b73f4	-0.0010639415
191	0xbd0d916f	-0.034562524
192	0x3c074108	0.008255251
193	0x3dbaadf3	0.091152094
194	0x3d666da6	0.056256913
195	0xbc27e20d	-0.010246766
196	0x3d09f8b1	0.033684436
197	0x3dde1a5c	0.108448714
198	0x3e037311	0.12836863
199	0x3d52a83a	0.051429965
200	0x3c93e0bf	0.018051503
201	0xbe130dd8	-0.1436075
202	0xbeafd09e	-0.3433885
203	0xbf23336f	-0.63750356
204	0x3e7f72b3	0.24946098
205	0x3e7cb842	0.24679664
206	0xbc42ccf0	-0.011889681
207	0xbe968432	-0.29397732
208	0x3ee51087	0.44739172
209	0xbd43adec	-0.047773287
210	0x3d050cde	0.032482974
211	0x3d212b87	0.03934815
212	0x3d636af6	0.055521928
213	0xbd2d3f98	-0.042296976
214	0xbcdfdfbe	-0.027328368
215	0xbd195ce4	-0.037442103
216	0x3e1757b6	0.14779553
217	0x3e04819e	0.1294007
218	0x3e39712e	0.18109581
219	0x3daaf57e	0.08347605
220	0xbca84a48	-0.020543233
221	0xbecfb8ad	-0.40570584
222	0xbef5f343	-0.48037156
223	0xbec8b90b	-0.39203677
224	0xbca9572b	-0.020671448
225	0x3de7a208	0.11310202
226	0x3f0fce17	0.56173843
227	0x3e35c062	0.1774917
228	0x3d02a06e	0.03189128
229	0x3c72a8ab	0.014810721
230	0x3d2cc32e	0.042178325
231	0x3d7d3d13	0.061825823
232	0x3d46ea8b	0.04856352
233	0x3d55cfe9	0.05220023
234	0xbd87ae5a	-0.06625052
235	0xbe38b264	-0.180368
236	0xbe60cd3c	-0.2195329
237	0xbdd748f5	-0.10511962
238	0xbe292ea5	-0.165217
239	0x3e0e3fa9	0.13891472
240	0x3f0c0d81	0.54708105
241	0x3ee846dc	0.4536656
242	0xbbb387ac	-0.00547882
243	0xbd005d14	-0.031338766
244	0xbce6b915	-0.028164426
245	0xbf1451a4	-0.57937074
246	0x3d5618b7	0.052269664
247	0xbd0c08d5	-0.03418811
248	0x3c9f989a	0.019481946
249	0x3d4faabf	0.050699946
250	0x3cdb824e	0.026795533
251	0xbdf6f928	-0.120592415
252	0xbd1525d5	-0.036413033
253	0x3d8bda12	0.06828703
254	0x3e81c5b0	0.25346136
255	0x3e99aaeb	0.30013213

bnorm_1.weight f4 [16]
0	0x402be233	2.685681
1	0x401461e3	2.3184745
2	0x4016c52d	2.3557847
3	0x3fcb707b	1.5893701
4	0x3f77c055	0.9677785
5	0x3fe980c9	1.8242427
6	0x3fc00548	1.5001612
7	0x3ff95fd7	1.9482373
8	0x3f91b416	1.1383083
9	0x3f1c38c0	0.61024094
10	0x4019bf17	2.4022882
11	0x40253b1c	2.5817327
12	0x401eff65	2.484338
13	0x4062e8c2	3.5454564
14	0x403e5795	2.9740956
15	0x3ff9db48	1.9520044

bnorm_1.bias f4 [16]
0	0xbfb134c1	-1.3844224
1	0xbf70bc21	-0.9403706
2	0xbfbd1e91	-1.4774953
3	0xbe0ff08c	-0.14056605
4	0x3c905e89	0.017623203
5	0xbeeb5969	-0.45966652
6	0xbd620c2b	-0.055187386
7	0xbf32405f	-0.6962947
8	0xbeb5c350	-0.35500574
9	0xbbac2858	-0.005253833
10	0xbfa186a0	-1.2619209
11	0xbfbf77a5	-1.4958388
12	0xbf9efede	-1.2421529
13	0xc006c730	-2.1059074
14	0xbff059d2	-1.8777411
15	0xbe864554	-0.26224768

bnorm_1.running_mean f4 [16]
0	0xb9662081	-0.00021946618
1	0x38c4863a	9.37101e-05
2	0xba5429f7	-0.00080934115
3	0x3acf0a6f	0.0015795956
4	0xb98da050	-0.00027013058
5	0xbb538838	-0.0032277238
6	0x3a1851b2	0.00058105134
7	0x3a3d2440	0.00072151795
8	0xba97dbce	-0.0011585893
9	0xb8b8d502	-8.8134795e-05
10	0xba74d19d	-0.0009339096
11	0xba902018	-0.0010995893
12	0x39831641	0.00025002848
13	0xba85e80d	-0.0010216251
14	0x3a26e094	0.0006365862
15	0x3a6cab4b	0.000902821

bnorm_1.running_var f4 [16]
0	0x3e96e3d4	0.29470694
1	0x3e2c4c03	0.16825871
2	0x3e10dace	0.14145967
3	0x3ea58e5b	0.3233517
4	0x3e2998e9	0.16562237
5	0x3e1f0dc0	0.15532589
6	0x3e859410	0.26089525
7	0x3eb16e2a	0.3465436
8	0x3e16861c	0.14699596
9	0x3e3b73eb	0.18305938
10	0x3e3f1165	0.18658979
11	0x3e1ac640	0.15114689
12	0x3e1203d6	0.14259276
13	0x3e9705a0	0.2949648
14	0x3e5aebe5	0.21379049
15	0x3dddb41e	0.1082537

conv_separable_depth.weight f4 [16, 1, 1, 16]
0	0xbe50ebdd	-0.20402475
1	0x3efda925	0.4954311
2	0x3e4a921e	0.19782302
3	0x3e3f9287	0.1870824
4	0xb9e56602	-0.00043754285
5	0xbb9334e2	-0.004492388
6	0xbc76677a	-0.015039319
7	0xbdb7d9bc	-0.089770764
8	0xbe8f564e	-0.27995533
9	0xbe1ba4cf	-0.15199588
10	0x3dbd435f	0.09241366
11	0x3c2cfe94	0.010558743
12	0x3cda8005	0.026672373
13	0xbe4e9bc8	-0.20176613
14	0xbc1bacc0	-0.009501636
15	0xbe0a0836	-0.13479695
16	0x3e137628	0.14400542
17	0x3d90f457	0.07077854
18	0x3d453ca3	0.04815353
19	0x3e0f6fc5	0.1400748
20	0x3abb3356	0.0014282267
21	0x3e3279c1	0.17429258
22	0x3e0b15a1	0.1358247
23	0x3e120da8	0.14263022
24	0x3d577fb5	0.052612025
25	0xbcf27528	-0.02959688
26	0x3d96bdcf	0.07360422
27	0x3e21e799	0.15811004
28	0x3d0ae4ec	0.033909723
29	0xbdb44982	-0.08803083
30	0xba01de4a	-0.0004954083
31	0xbe6a4438	-0.22877586
32	0xbea65aeb	-0.3249124
33	0xbe72d8a6	-0.23715457
34	0x3e30db60	0.17271185
35	0xbeda77a8	-0.42669415
36	0xbdca7cbe	-0.09887074
37	0x3dca3dfd	0.098751046
38	0x3e652b6a	0.22379842
39	0x3ef17468	0.47159123
40	0xbc88ea6f	-0.01671335
41	0xbe552681	-0.2081547
42	0x3dfb71a7	0.12277537
43	0xbd2eb072	-0.04264874
44	0xbe023ae5	-0.12717779
45	0x3c21f454	0.0098849125
46	0x3d8aeed8	0.06783837
47	0x3c2c0330	0.010498807
48	0xbda81a94	-0.082081944
49	0xbec39307	-0.3819811
50	0xbde87578	-0.113505304
51	0x3dc10cf4	0.09426299
52	0x3e43128f	0.19050048
53	0x3e82c192	0.25538307
54	0x3e910a4e	0.28328174
55	0xbd65fa46	-0.056146882
56	0x3d2a8f93	0.04164083
57	0xbe339e21	-0.1754079
58	0xbe834a49	-0.25642613
59	0xbe04283c	-0.12905973
60	0x3e8c5f3d	0.2741641
61	0xbe42e484	-0.19032484
62	0x3d954fb2	0.07290591
63	0x3ee44fde	0.44592184
64	0xbc21c59a	-0.009873772
65	0x3e99ad22	0.30014902
66	0x3dea2456	0.11432712
67	0xbc129169	-0.008945801
68	0xbdf8db98	-0.12151259
69	0xbe24a194	-0.16077262
70	0x3dfc395f	0.1231563
71	0xbc335900	-0.010946512
72	0x3de044be	0.109506115
73	0xbe461752	-0.19344833
74	0xbeab5e9f	-0.33470628
75	0x3e98bcc1	0.29831508
76	0x3dcbbda4	0.099482805
77	0x3ea52b2d	0.32259503
78	0xbe168556	-0.14699301
79	0xbe847f22	-0.25878245
80	0xbf0bf108	-0.5466466
81	0x3ee0ff47	0.4394476
82	0x3dfc192b	0.12309488
83	0x3ec2b72b	0.3803037
84	0x3e447d82	0.19188502
85	0x3da6acb5	0.0813841
86	0xbe12e52f	-0.14345239
87	0xbe568bf0	-0.2095182
88	0xbe92e33f	-0.28689
89	0x3db45485	0.08805183
90	0x3e84248a	0.25809127
91	0x3e078780	0.13235283
92	0x3e19dac5	0.1502486
93	0xbbf54cc2	-0.007485957
94	0xbe2a8b25	-0.16654642
95	0xbd420243	-0.04736544
96	0xbc57f2bc	-0.013180431
97	0xbe861f3c	-0.26195705
98	0x3eee06ed	0.4648966
99	0xbd31b262	-0.04338301
100	0xbe9b1fd5	-0.30297723
101	0xbb3bb2be	-0.0028640474
102	0x3f097ee3	0.5370924
103	0x3e937800	0.2880249
104	0xbeb5b5e6	-0.3549034
105	0xbde9f7f8	-0.114242494
106	0xbb5a5024	-0.0033311928
107	0x3de96c5c	0.11397621
108	0x3cd0d83f	0.02549374
109	0x3d7555e4	0.059896365
110	0x3dbede63	0.09319761
111	0xbc77a472	-0.01511489
112	0xbe4ea51b	-0.2018017
113	0xbee67fcd	-0.4501938
114	0x3f5282ae	0.8223065
115	0xbe09efd6	-0.13470396
116	0xbe9971da	-0.29969674
117	0xbea6b59a	-0.32560426
118	0x3ebaddf9	0.36497477
119	0x3dc73813	0.09727492
120	0xbd5e108f	-0.05421501
121	0xbe8a270f	-0.26982924
122	0x3e460fc0	0.19341946
123	0x3d89c0e1	0.06726242
124	0xbd8ea13d	-0.069643475
125	0xbd11af92	-0.035567828
126	0x3dcb5809	0.09928901
127	0x3e01a4e3	0.12660556
128	0xbdd9a42a	-0.10627015
129	0x3d1d41fb	0.038393002
130	0x3d3119e0	0.043237567
131	0xbdf74202	-0.12073137
132	0xbeb5b9cf	-0.35493323
133	0xbe6165bb	-0.22011463
134	0x3db9924e	0.090611085
135	0x3e55bdb4	0.20873147
136	0xbdd0f911	-0.10203756
137	0x3e53163c	0.2061395
138	0x3dc8ef60	0.09811282
139	0x3e97ad8a	0.29624587
140	0x3c995cc9	0.018721001
141	0x3dbf6e06	0.09347157
142	0xbe1f23b8	-0.1554097
143	0xbdc6e652	-0.09711899
144	0xbdf5fd80	-0.12011242
145	0x3d68785b	0.056755405
146	0x3e483c4d	0.19554253
147	0x3e0e9556	0.13924155
148	0x3eb5b402	0.35488898
149	0xbe065e11	-0.13121821
150	0xbe4dbf5d	-0.2009253
151	0xbe3820e6	-0.179813
152	0xbef81c4a	-0.48459083
153	0xbe222790	-0.15835404
154	0xbdcc67a1	-0.09980703
155	0x3db9bb9e	0.09068988
156	0x3dd4bcc4	0.10387567
157	0x3e5deb55	0.21671803
158	0x3d1977c7	0.037467744
159	0x3e8ca6b2	0.27470928
160	0xbd8e7d99	-0.069575496
161	0xbe5e7c28	-0.2172705
162	0x3da39e68	0.07989198
163	0x3e405116	0.18780932
164	0x3e10d736	0.14144596
165	0x3db688c4	0.08912805
166	0xbd8f3831	-0.069931395
167	0x3e5b4e8e	0.21416685
168	0xbe85c02d	-0.2612318
169	0xbea6ff36	-0.32616585
170	0xbe45ec39	-0.19328393
171	0x3e483c4d	0.19554253
172	0x3e2c35c9	0.16817392
173	0x3e3bf491	0.18355013
174	0x3d5594aa	0.05214373
175	0x3e36d1ad	0.17853422
176	0xbe637fd6	-0.22216734
177	0x3db8fb16	0.09032266
178	0xbd61211d	-0.05496322
179	0x3e2e0a3b	0.1699609
180	0xbd832242	-0.064030185
181	0xbdb74de4	-0.08950403
182	0xbf2e3774	-0.68053365
183	0x3f1dd226	0.61648786
184	0xbd9d7df9	-0.07690043
185	0x3e3840c8	0.17993462
186	0x3e7c8e83	0.24663739
187	0xbe0599df	-0.13046978
188	0xbe030039	-0.12793054
189	0x3d21d295	0.039507467
190	0xbe719f9b	-0.23596041
191	0xbd135b63	-0.035975825
192	0xbdee70c4	-0.11642602
193	0x3d77ea63	0.060526263
194	0x3e0e8ce8	0.13920939
195	0x3d51969b	0.05116902
196	0x3e83562c	0.2565168
197	0x3c51d5b7	0.012807301
198	0xbd1b0912	-0.037850447
199	0x3e4448a4	0.19168335
200	0x3d303798	0.04302177
201	0x3d5cb127	0.053879883
202	0x3d93f60b	0.07224663
203	0xbe87c563	-0.26517782
204	0xbe45b75d	-0.19308229
205	0xbdb39553	-0.08768716
206	0x3e4edb58	0.2020086
207	0xbdc9ceed	-0.09853921
208	0xbd849a15	-0.06474701
209	0xbe7c7eb0	-0.24657702
210	0xbd68f5b1	-0.056874935
211	0xbe7020cb	-0.2345001
212	0x3ecae8d4	0.3963076
213	0x3d20e0f7	0.039277043
214	0xbd343972	-0.044000097
215	0xbd690312	-0.056887694
216	0xbdd48686	-0.10377221
217	0xbe2e65a3	-0.17030959
218	0x3e6fa592	0.23403004
219	0xbe3ead81	-0.18620874
220	0xbe84e66a	-0.25957042
221	0xbcba74d1	-0.02276078
222	0xbdb692c5	-0.08914713
223	0xbe922db6	-0.285505
224	0xbe464999	-0.19364013
225	0x3e2739ad	0.16330595
226	0xbe3c4687	-0.18386279
227	0xbec22503	-0.37918863
228	0x3e708e70	0.23491836
229	0x3e8d0c83	0.27548608
230	0x3e7f4b3d	0.24931045
231	0xbd88577a	-0.0665731
232	0xbe96dfcf	-0.29467627
233	0xbeddcf51	-0.43322232
234	0xbe9c6a8e	-0.30550045
235	0x3d7a9bd0	0.06118375
236	0x3e13a84a	0.14419666
237	0xbe1a49fd	-0.15067287
238	0x3c9e3f82	0.019317392
239	0x3bbdb18f	0.005788989
240	0x3e522d50	0.20525098
241	0xbf3372ae	-0.7009686
242	0xbf207ca2	-0.62690175
243	0xbcde8195	-0.027161399
244	0x3e6b8894	0.23001319
245	0x3e9cd7e4	0.3063346
246	0xbe335b8f	-0.17515396
247	0xbe1cbc44	-0.15306193
248	0x3e1f2fbf	0.15545557
249	0xbd989c3c	-0.07451674
250	0xbd5ab7c1	-0.053397898
251	0xbde687bb	-0.11256357
252	0xbe04c589	-0.12965979
253	0x3e921499	0.2853134
254	0x3bc07419	0.005873215
255	0xbe34e9d8	-0.1766733

conv_separable_point.weight f4 [16, 16, 1, 1]
0	0xbe373527	-0.1789137
1	0xbd918d6d	-0.07107053
2	0xbe2b8b47	-0.16752349
3	0xbdebc1bf	-0.115115635
4	0xbd3c368f	-0.04595047
5	0xbdf23043	-0.118256114
6	0x3dc81be9	0.097709484
7	0x3ea8f384	0.32998288
8	0xbd974f0a	-0.073881224
9	0xbd73a7e4	-0.059486285
10	0x3ca2178d	0.01978662
11	0xbeb529a4	-0.35383332
12	0x3d95cae3	0.07314088
13	0x3e18c1b2	0.14917639
14	0xbd2603bf	-0.040530916
15	0x3f20695d	0.6266077
16	0xbe25d719	-0.16195334
17	0xbd32e005	-0.043670673
18	0xbe85fd1a	-0.26169664
19	0xbd9f9176	-0.07791416
20	0xbe083975	-0.13303168
21	0xbe73fa05	-0.23825844
22	0x3df7549c	0.12076685
23	0x3ec8dece	0.39232486
24	0xbd089315	-0.033343393
25	0xbdb1fb54	-0.08690515
26	0x3cd0435e	0.025422748
27	0xbece001d	-0.4023446
28	0xbbe5197f	-0.0069915648
29	0x3e4c2ce7	0.19939004
30	0xbcc16cc5	-0.023611436
31	0x3f15f7d9	0.5858131
32	0xbdd08eff	-0.10183524
33	0xbe8f363b	-0.27971062
34	0xbede0954	-0.43366492
35	0xbe1752c7	-0.14777671
36	0xbe35d0c1	-0.17755415
37	0xbf250e66	-0.64475095
38	0x3e327355	0.17426808
39	0x3e4907b6	0.19631848
40	0xbdc52913	-0.09626975
41	0xbe4537eb	-0.19259612
42	0xba8b3c0d	-0.0010622755
43	0xbe916e76	-0.28404588
44	0xbbdfe73f	-0.0068329866
45	0x3e8bc152	0.2729593
46	0xbc1ae0ba	-0.009452993
47	0x3f0dfb33	0.55461425
48	0xbeb3a722	-0.3508845
49	0x3d03e801	0.032203678
50	0xbdbbce6f	-0.091702335
51	0x3e3c0947	0.18362914
52	0xbe48a82d	-0.19595404
53	0xbe759363	-0.23982005
54	0x3e858024	0.26074326
55	0x3e4a2942	0.19742301
56	0xbe612c0b	-0.21989457
57	0xbd711103	-0.058854114
58	0x3cf76bd0	0.030202776
59	0xbd577de1	-0.05261028
60	0xbd7f87ff	-0.062385555
61	0xbbe9bd1c	-0.0071331393
62	0x3f215573	0.6302101
63	0x3ea40b7c	0.32040012
64	0xbdcd5dc8	-0.10027653
65	0x3dd4ad5f	0.103846304
66	0xbb86f2c2	-0.0041182945
67	0x3e8ecc54	0.27890265
68	0xbebad5d7	-0.36491272
69	0xbe99abdb	-0.30013928
70	0x3b8785a2	0.0041358033
71	0x3ed0edd7	0.40806457
72	0xbd93faa5	-0.07225541
73	0xbc822941	-0.015888812
74	0x3dd41791	0.103560574
75	0xbea2a0fd	-0.3176345
76	0xbeb9b997	-0.36274406
77	0x3ef26f9e	0.47350782
78	0x3e83b25d	0.25722018
79	0xbddbae80	-0.107266426
80	0x3ec8bd5e	0.39206976
81	0xba4c5321	-0.00077943696
82	0x3e7a4f78	0.24444377
83	0xbe7020f7	-0.23450075
84	0x3ece9d41	0.4035435
85	0xbec29934	-0.3800751
86	0xbbb37c2f	-0.0054774503
87	0xbd90afda	-0.07064791
88	0x3e8a0e8c	0.26964223
89	0x3eda44fb	0.42630753
90	0xbefb487d	-0.49078742
91	0x3ddfbfbd	0.10925243
92	0xbe40d3d9	-0.18830813
93	0xbd5e6eb3	-0.05430479
94	0x3e1ae2c8	0.15125573
95	0x3dc2081a	0.094742015
96	0x3eb95689	0.36198834
97	0xbe868182	-0.26270682
98	0xbed853a0	-0.422513
99	0xbc794418	-0.015213989
100	0xbecab322	-0.39589792
101	0x3e91990a	0.28437072
102	0xbf257478	-0.6463084
103	0xbd52bfe3	-0.05145253
104	0xbcf101b6	-0.029419761
105	0xbe3a6399	-0.18202056
106	0x3ea280e4	0.3173896
107	0x3de01576	0.10941593
108	0x3ec1452b	0.37748083
109	0x3db93815	0.090439
110	0x3dcd0c3a	0.10012098
111	0xbddfc5c6	-0.10926394
112	0xbeaf0361	-0.34182265
113	0xbeef45f0	-0.46733046
114	0xbd809d66	-0.06280021
115	0x3d1d16fc	0.038351998
116	0x3e6f4e4e	0.23369715
117	0xbe726386	-0.23670778
118	0xbd6584eb	-0.056034964
119	0xbeb8fc3e	-0.36129946
120	0x3e096cfd	0.13420482
121	0x3e1ddc41	0.15416051
122	0xbe782e00	-0.24236298
123	0x3e92a413	0.28640804
124	0xbe061b72	-0.13096407
125	0xbed2c564	-0.41166222
126	0x3efd308e	0.49451107
127	0x3e248877	0.16067682
128	0xbd9a526a	-0.075352505
129	0xbd8746d6	-0.06605308
130	0x3e5ce5eb	0.21572082
131	0xbda74e76	-0.08169262
132	0x3eb41cfa	0.35178357
133	0xbe9c9ac2	-0.3058682
134	0xbe8d1157	-0.27552292
135	0xbd1fefbe	-0.039046995
136	0x3e7f6950	0.24942517
137	0x3eca9199	0.39564207
138	0xbe84b575	-0.2591969
139	0x3e04fece	0.12987825
140	0x3c99f0c6	0.018791568
141	0xbcdca060	-0.026931942
142	0xbd0cdd89	-0.03439096
143	0x3dc32824	0.095291406
144	0x3f00bf21	0.5029164
145	0xbf1a17b8	-0.6019244
146	0x3e0b63db	0.1361231
147	0xbe975366	-0.29555815
148	0xbd2ef0de	-0.042710178
149	0xbe93a79e	-0.2883882
150	0xbe9ec9c0	-0.31013298
151	0x3e0e0330	0.13868403
152	0xbe7094ad	-0.23494215
153	0xbe52d912	-0.20590618
154	0xbcd2f614	-0.025752105
155	0x3d1739a5	0.03692021
156	0x3ec44318	0.38332438
157	0x3e4ad241	0.19806768
158	0xbe2c7ce2	-0.16844514
159	0x3e3354ed	0.17512865
160	0x3e276beb	0.16349761
161	0xbeebb43f	-0.46035954
162	0xbe45e161	-0.19324256
163	0xbe9be233	-0.30446014
164	0xbde60d1f	-0.112329714
165	0xbea0aaa0	-0.31380177
166	0x3d75ae81	0.059980873
167	0x3d48da4e	0.049036317
168	0x3cbe31a3	0.023217028
169	0xbdf4c544	-0.11951688
170	0xbccbc6e8	-0.02487512
171	0xbdf3dec9	-0.11907727
172	0x3eeda087	0.46411535
173	0x3f03a421	0.51422316
174	0xbe33a037	-0.17541586
175	0x3e6aeb5f	0.2294135
176	0xbecdb035	-0.40173498
177	0x3df0cf60	0.11758304
178	0x3e1fc8b9	0.15603913
179	0xbd33b07a	-0.043869473
180	0xbdeaa0a8	-0.11456424
181	0xbe0b393f	-0.13596056
182	0x3c6dc298	0.014511727
183	0xbe40781e	-0.18795821
184	0xbd87fcb2	-0.06639995
185	0x3e00360b	0.12520616
186	0x3d7596c4	0.059958234
187	0x3f17e15a	0.59328234
188	0xbeca813e	-0.3955173
189	0x3db108b5	0.08644239
190	0x3eb44b83	0.3521386
191	0xbdfd1676	-0.123578
192	0x3ea728af	0.32648227
193	0x3d6f38e3	0.05840386
194	0x3e61707c	0.22015566
195	0xbe9d22e8	-0.30690694
196	0x3f009b10	0.50236607
197	0xbed92cea	-0.4241708
198	0x3d48cf8b	0.049026053
199	0xbe0a7a6a	-0.1352326
200	0x3ea202bf	0.3164272
201	0x3edf6d4f	0.43638083
202	0xbec69ab3	-0.387899
203	0x3e0a7d74	0.13524419
204	0xbe1c8b5a	-0.15287533
205	0xbd815797	-0.063155346
206	0x3e271db5	0.16319926
207	0x3d8a5ee9	0.06756384
208	0x3e7bea9f	0.2460122
209	0xbe0bd034	-0.13653642
210	0x3ea29cb1	0.3176017
211	0xbede1b0e	-0.43380016
212	0xbd86b242	-0.06576969
213	0xbdb91130	-0.090364814
214	0xbec68878	-0.38775992
215	0xbe6c2d3f	-0.23064135
216	0x3e8e09b5	0.2774178
217	0xb9cca972	-0.0003903616
218	0xbeceef3f	-0.40416905
219	0x3e1e89eb	0.15482299
220	0xbda84bb6	-0.08217566
221	0x3d17eb10	0.037089407
222	0x3de1f4f4	0.11033049
223	0xbd0cd21b	-0.03438006
224	0xbd86632f	-0.065618865
225	0xbe596255	-0.21228917
226	0xbe25c2ff	-0.16187666
227	0x3d98931d	0.07449935
228	0xbed44c54	-0.41464484
229	0x3e8b223a	0.2717455
230	0xbefc4596	-0.4927184
231	0xbe98d492	-0.29849678
232	0xbd782135	-0.060578544
233	0xbe01488b	-0.12625329
234	0x3cc8bdda	0.02450459
235	0x3e44ca76	0.19217858
236	0xbbd8dd66	-0.0066181896
237	0x3e1a52e3	0.15070681
238	0x3d4a65e7	0.049413588
239	0xbe9bffa7	-0.30468485
240	0xbda46067	-0.080262
241	0xbdd6f129	-0.104952164
242	0x3e9a0a4b	0.30085978
243	0xbf0d17fe	-0.55114734
244	0x3e43ecb8	0.1913327
245	0xbe8e7427	-0.27822992
246	0xbe6f4c86	-0.23369035
247	0xbebd5609	-0.36979702
248	0x3eb03ed8	0.34422946
249	0x3e86fbca	0.26363975
250	0xbe852e45	-0.26011863
251	0x3e85d900	0.2614212
252	0xbe62f4c3	-0.22163682
253	0x3d6ff02c	0.058578655
254	0x3e5b0dcf	0.21391986
255	0xbe58fc8f	-0.21190093

bnorm_2.weight f4 [16]
0	0x3f6fe948	0.93715334
1	0x3f6d3933	0.92665404
2	0x3fb2868a	1.3947308
3	0x3f910847	1.1330651
4	0x3f6cc8c4	0.92493844
5	0x4022bb37	2.5426767
6	0x3fd031d5	1.6265208
7	0x3f6fcc63	0.93671244
8	0x40007b47	2.0075243
9	0x40037e02	2.054566
10	0x3ff174cb	1.8863767
11	0x3f6a4877	0.9151682
12	0x4011c823	2.2778404
13	0x4011ca9a	2.2779908
14	0x3fe239b8	1.7673864
15	0x3fe733de	1.8062704

bnorm_2.bias f4 [16]
0	0xbdd17a14	-0.10228363
1	0xbdf67635	-0.12034265
2	0xbe86ef0b	-0.2635425
3	0xbe43fe1e	-0.19139907
4	0xbe2ec8c0	-0.17068768
5	0xbfa13d24	-1.2596784
6	0xbee7339d	-0.45156565
7	0xbdf7b828	-0.12095672
8	0xbf2b9d4b	-0.67036885
9	0xbf683b26	-0.90715253
10	0xbf27a762	-0.6548978
11	0xbe1c2525	-0.15248545
12	0xbf8336bf	-1.0251082
13	0xbf4a2b08	-0.7897191
14	0xbead7a68	-0.3388245
15	0xbf007ff6	-0.5019525

bnorm_2.running_mean f4 [16]
0	0xbe1611f6	-0.14655289
1	0xbe0c3f5e	-0.13696048
2	0xbe0e81d4	-0.13916713
3	0x3d0b7175	0.034043748
4	0x3db26f64	0.08712652
5	0xbb3a4648	-0.0028423239
6	0xbcf5b44e	-0.029993203
7	0x3b127013	0.0022344633
8	0xbd7993b1	-0.060931865
9	0xbdde50df	-0.10855269
10	0xbd937466	-0.071999356
11	0x3ddd8b7e	0.10817622
12	0x39986a46	0.0002907088
13	0xbc406e5f	-0.0117450645
14	0x3d6d0c77	0.057873216
15	0x3d3bc9d7	0.045846786

bnorm_2.running_var f4 [16]
0	0x401b0d5f	2.422691
1	0x4030aa19	2.760382
2	0x40409361	3.0089953
3	0x3fee10b8	1.8598852
4	0x3fc32cbf	1.524803
5	0x3f895c28	1.0731249
6	0x3fb3720e	1.4019182
7	0x3ffbace3	1.9662136
8	0x3f27e132	0.65577996
9	0x3f71dab6	0.9447435
10	0x3fb63f36	1.423804
11	0x3fb19f6a	1.3876774
12	0x3f96bbb6	1.1776035
13	0x3f920c0e	1.1409929
14	0x3fc07fd4	1.503901
15	0x3ff6dc76	1.9286029

final_layer.conv_classifier.weight f4 [2, 16, 1, 4]
0	0x3f757ed4	0.9589665
1	0xbc23c7f3	-0.009996402
2	0x3e48003b	0.19531338
3	0x3d81f269	0.06345064
4	0x3f418b2f	0.75603
5	0xbe90b62e	-0.28263992
6	0x3dc82767	0.097731404
7	0x3d4e2746	0.050330423
8	0x3f1e6cd2	0.61884797
9	0xbe193455	-0.1496137
10	0xbd3f0631	-0.046636764
11	0x3d96c326	0.0736144
12	0x3efc356a	0.49259502
13	0x3e2a1de6	0.16612968
14	0xbedd5c5d	-0.4323453
15	0xbc52f6ad	-0.012876195
16	0x3ec9c25e	0.39406103
17	0x3ed39e08	0.41331506
18	0xbe8fb51d	-0.28067866
19	0xbf3fe86b	-0.74964017
20	0xbe6810ba	-0.2266263
21	0x3dcf0795	0.10108868
22	0xbd6def09	-0.05808929
23	0xbd0ab309	-0.033862147
24	0xbe49e301	-0.19715501
25	0x3e000bdc	0.12504524
26	0x3eca0be4	0.39462197
27	0x3e325381	0.17414667
28	0xbe2d18ff	-0.16904067
29	0x3dc76a1e	0.09737037
30	0x3d6f89ec	0.058481142
31	0x3eabab15	0.33528963
32	0xbe94dfba	-0.2907694
33	0x3db5a2a1	0.088689096
34	0x3d615b7e	0.055018894
35	0x3e03ff86	0.12890443
36	0x3d4558fa	0.048180558
37	0xbe49db50	-0.19712567
38	0x3e62a682	0.2213383
39	0x3e225802	0.15853885
40	0x3e7f9cad	0.24962111
41	0xbe2a6af7	-0.16642366
42	0x3e60deb0	0.21959949
43	0xbdc6e5eb	-0.09711822
44	0xbe91df0f	-0.28490493
45	0x3ede41c4	0.4340955
46	0xbd9b6b48	-0.07588822
47	0xbe50e911	-0.20401408
48	0xbea938a3	-0.33051023
49	0x3c80c4cc	0.01571884
50	0x3c5bb558	0.013409935
51	0x3c557631	0.013028667
52	0xbe1a5012	-0.15069607
53	0xbe153604	-0.14571387
54	0x3cb03e50	0.021514088
55	0x3e9a2317	0.30104896
56	0xbefcaa42	-0.49348646
57	0xbdb0e376	-0.08637135
58	0x3ca9d70d	0.020732427
59	0xbc901b81	-0.01759124
60	0xbf02d03e	-0.51099
61	0x3d1f46ec	0.038885996
62	0x39c91aed	0.0003835777
63	0x3da61f8c	0.08111486
64	0xbf84c58a	-1.0372784
65	0x3eb37bfd	0.35055533
66	0x3e907347	0.2821295
67	0x3dec897a	0.11549659
68	0xbf9790ae	-1.1841028
69	0x3ddaf709	0.106916495
70	0x3e03021a	0.1279377
71	0x3e47fabb	0.1952924
72	0xbf3dee1a	-0.7419144
73	0x3e1204da	0.14259663
74	0xbe549329	-0.20759262
75	0x3d07e702	0.03317929
76	0xbee2c75d	-0.44292727
77	0xbea016d6	-0.31267422
78	0xbda8506d	-0.08218465
79	0xbdfc48b5	-0.12318555
80	0xbee79ad6	-0.45235318
81	0xbc71d84e	-0.014761044
82	0x3ee5640c	0.44802892
83	0x3f030b5c	0.5118921
84	0x3e6646aa	0.22487894
85	0xbd504f9c	-0.05085717
86	0xbe5c865b	-0.21535628
87	0xbe09fec4	-0.13476092
88	0x3ec2cbe7	0.3804619
89	0x3d15fd1e	0.036618344
90	0xbdb1dfee	-0.08685289
91	0x3df3bbac	0.1190103
92	0xbdc16b81	-0.09444333
93	0xbed943a8	-0.4243443
94	0xbd98bb3b	-0.074575864
95	0xbe67d0b9	-0.22638215
96	0x3e12e933	0.14346771
97	0xbd02be11	-0.031919543
98	0xbde43088	-0.11142069
99	0xbe777b9e	-0.2416825
100	0xbe3f602d	-0.18689032
101	0x3e096bfa	0.13420096
102	0xbd816d1f	-0.06319641
103	0x3c59e579	0.013299339
104	0xbe19de77	-0.1502627
105	0x3e7ac1e6	0.24488029
106	0x3d6b9fbe	0.05752539
107	0xbe81f00e	-0.2537846
108	0x3e09465d	0.13405748
109	0xbee5078c	-0.4473232
110	0x3e5befff	0.2147827
111	0xbdd2a1a1	-0.102847345
112	0x3e24f7a8	0.16110098
113	0xbdd4e443	-0.103951
114	0xbe18d602	-0.14925388
115	0xbdc4a486	-0.09601693
116	0x3ed8524d	0.4225029
117	0xbe1c59fb	-0.152687
118	0xbe78e0f3	-0.24304561
119	0x3db2a401	0.087226875
120	0x3eef34ee	0.4672007
121	0xbde68a25	-0.11256818
122	0xbda49fee	-0.08038317
123	0xbda1bdec	-0.07897553
124	0x3e7c7c2a	0.2465674
125	0xbdbf8540	-0.09351587
126	0xbda1a762	-0.07893254
127	0xbdecbc43	-0.115593456

final_layer.conv_classifier.bias f4 [2]
0	0x3e945476	0.2897069
1	0xbe9457a8	-0.28973126
