models/EEGNetv4.pth (torch, 17343 bytes, 18 tensors)

conv_temporal.weight f4 [8, 1, 1, 64]
000000 3e dc bf bd 33 a7 82 3a b3 c6 32 3e 9d 28 88 bd
       -0.0936818 0.0009968042 0.1745861 -0.06648371
000010 8b d1 d4 bd 1e 96 d7 3d 3b d7 ab 3c dd 2d 15 3c
       -0.1039153 0.105266795 0.020976653 0.009105173
000020 a9 48 8b 3c 46 c9 82 bd 8b af c5 3d f0 3d b8 3d
       0.01700242 -0.06386046 0.09652623 0.08996189
000030 1c 74 34 bc 81 b6 bf bd 5c 86 88 bd 2b bb 6e ba
       -0.011014011 -0.09360982 -0.06666252 -0.00091068697
000040 b6 9e 16 3e aa d0 bc 3d 34 9c 02 be b3 c8 71 3d
       0.14708981 0.09219487 -0.127549 0.059029292
000050 53 51 2d 3e 95 19 b9 be 86 ff 89 be 1d d7 ba 3e
       0.16925554 -0.3615233 -0.2695276 0.36492243
000060 aa 45 15 3f f8 67 b8 bd 5c 32 0b bf 1b 52 0a bf
       0.58309424 -0.090042055 -0.5437372 -0.54031533
000070 65 71 94 bb 27 22 e1 3e b6 72 12 3f e1 3b 36 3e
       -0.0045301192 0.4397137 0.57206285 0.1779628
000080 e3 b3 f0 bc cf 32 28 be 4d 68 8e be 54 cf 85 be
       -0.029382652 -0.16425632 -0.2781395 -0.2613474
000090 c2 e8 26 bd a4 73 52 bd e2 d9 b6 3d 2b 71 42 3e
       -0.04074932 -0.051379815 0.089282766 0.18988483
0000a0 57 7c 21 3e 7a 9e ae bc 4c 75 f6 bc 3e 88 f1 bd
       0.15770088 -0.021315802 -0.030085228 -0.11793564
0000b0 d0 df 47 3d 20 40 68 3b 32 61 76 bd b3 32 52 bd
       0.04879743 0.0035438612 -0.060151286 -0.05131788
0000c0 1b 7e fa 3d cd ac ae 3d 63 70 63 bd 68 e6 cb bb
       0.12231084 0.08529053 -0.055527102 -0.006222535
0000d0 39 b6 e9 bb 43 e9 e9 bc f2 f2 ef bd 95 1a 06 bd
       -0.0071323183 -0.02855361 -0.1171626 -0.032740194
0000e0 10 70 dc 3d 2c 47 31 3e 9e f3 75 bd 80 10 ed bc
       0.10763562 0.17312306 -0.060046785 -0.028938532
0000f0 9f 7a 99 bb a1 70 ee 3c 62 87 0a 3e b7 94 0f be
       -0.004683807 0.02910644 0.13528207 -0.14021574
000100 68 2e 1d 3e 40 5d 6f be 0e 32 f6 3d d1 45 96 3e
       0.15349734 -0.23375416 0.12021266 0.2935014
000110 4a 79 4c 3d 18 90 1a bd 42 27 e3 ba c3 99 f7 3d
       0.049920358 -0.037735075 -0.0017330425 0.120898746
000120 ba bb 80 3d 94 9a 87 3c 07 bb 0e be 63 5d b2 3d
       0.06285806 0.0165532 -0.13938533 0.08709218
000130 9d 4d 9d 3d 96 19 af bd 0c ce 06 bc 1b d9 b9 3c
       0.07680819 -0.08549802 -0.008227836 0.022686532
000140 a4 07 f1 3c d5 fb d1 bd 78 1b 20 bc bd 1a 8a 3b
       0.029422589 -0.10253111 -0.009772174 0.004214613
000150 5e 0b 14 3b 1f 32 5c bd a3 de 5f bd ac 68 ea bb
       0.0022589783 -0.053758737 -0.054655682 -0.007153591
000160 94 37 f3 3c 15 9c 39 3d 19 a2 8b bc 28 9b 84 3d
       0.029689588 0.045314867 -0.017045068 0.06474906
000170 d9 25 f7 bd df 74 17 3e 32 33 c3 3b 8a 87 c7 bd
       -0.12067766 0.14790677 0.0059570307 -0.09742649
000180 e3 c7 52 bd d1 2b 00 be b0 e5 ad 3d 6b af cf 3d
       -0.051460158 -0.12516715 0.08491075 0.1014088
000190 9e 59 dd bd 5a 03 1e be 90 ab a4 3d 06 9e 89 3e
       -0.10808109 -0.15430966 0.080405354 0.26878375
0001a0 b6 56 7b 3c b3 37 06 be 5c f9 22 3e 67 dd 24 3e
       0.015340498 -0.13107185 0.15915436 0.16100083
0001b0 f4 d2 24 3e 8b 46 28 3e f8 ee 0a be fd a3 f1 bd
       0.16096097 0.1643316 -0.13567722 -0.117988564
0001c0 9b 5b 56 3e da 1b 22 be c8 64 b5 be 21 52 c9 bd
       0.20933382 -0.15830937 -0.35428452 -0.09830118
0001d0 ba 39 68 be 0d 0b 1f be 14 51 d5 bc e0 28 47 be
       -0.22678271 -0.1553156 -0.026039638 -0.19449186
0001e0 b9 37 61 3d 66 61 9e 3b 53 88 39 be 93 6c 18 bd
       0.054984782 0.004833388 -0.1811841 -0.03721292
0001f0 bb 9c c4 3e e8 e8 a8 bc 40 30 b8 be 23 a0 c9 3e
       0.38400826 -0.02061887 -0.35974312 0.39379987
000200 06 cf 24 3e 2b 3a 28 be 52 d3 14 3e 98 6b fd bb
       0.16094598 -0.1642844 0.14533737 -0.0077337734
000210 d3 cc 34 3c 90 82 ce bc aa 87 cb bc b3 23 45 bd
       0.011035162 -0.025208741 -0.024844963 -0.04812975
000220 73 64 9d 3d fb 9a f0 bd f6 33 d6 bd 7c 34 2c 3e
       0.07685175 -0.1174831 -0.104591295 0.16816896
000230 62 2d ff 3d 57 32 3d be 9c 47 a0 be 3b 34 c8 bd
       0.12459828 -0.18476234 -0.31304634 -0.09775587
000240 0f 37 a7 3d e8 df e4 bd 66 2b ad bc c9 4a b0 bc
       0.081647985 -0.11175519 -0.021138858 -0.021520035
000250 07 81 ca 3d 65 59 d2 3d 4c c2 33 bc 46 6a 45 3e
       0.09887891 0.10270957 -0.010971617 0.19278821
000260 d0 05 4b bd f1 d6 c9 3d ac 9f c9 3d b5 52 8d 3d
       -0.04956609 0.0985545 0.09844908 0.06900541
000270 92 2c 82 3c 8c 64 8e 3d bc fd 86 3d af 91 f7 bc
       0.015890393 0.069527715 0.06591365 -0.030220835
000280 d1 1d 21 3d 61 8b b4 3c 53 80 2a 3d 22 4e 91 3d
       0.039335076 0.022039117 0.041626286 0.07094981
000290 5a 44 27 3e 6e 8d 52 be ff 6a 2f be eb 10 0a 3e
       0.16334668 -0.20561764 -0.1713066 0.13483016
0002a0 66 3b 19 bd 85 c5 60 be a0 0a 1b be 69 12 b9 bd
       -0.037410162 -0.21950348 -0.15140772 -0.090367146
0002b0 99 cb 6f be 92 7f 1b be 71 d7 35 be a2 e8 11 be
       -0.2341751 -0.15185383 -0.17757966 -0.14248899
0002c0 67 3a 16 bd 4d 5b 3d 3e 51 ce 56 3e 2d 81 42 3e
       -0.03667679 0.1849186 0.20977141 0.18994589
0002d0 e6 5b e5 3d ff c1 46 3e 72 53 22 3e eb 21 20 bd
       0.11199169 0.19409941 0.15852144 -0.039094847
0002e0 6b bd db 3d e1 8a 1f bd 08 6c 12 3d 35 b8 a4 3b
       0.10729488 -0.038950805 0.035747558 0.005026842
0002f0 90 cd 98 3c 84 12 93 3c 1a 81 0c 3e 23 c6 c6 be
       0.018652707 0.017953165 0.13721123 -0.3882304
000300 77 4c a8 be d3 69 fe bc ef 52 27 3e 8d c5 44 3e
       -0.32870838 -0.03105632 0.1634023 0.19215985
000310 cb 76 a9 bd 8a 23 96 3c 3e fe 0a bc 49 f4 96 3d
       -0.08274611 0.018327493 -0.008483468 0.073708124
000320 34 90 ec 3d 00 f8 2e 3c dc 4c bb 3d 2a 0c 9d bc
       0.11550942 0.010679245 0.09145519 -0.01917084
000330 a7 29 ad 3c 2a c6 01 3e 6c 2c fd bc 4f 26 d7 bd
       0.021138025 0.1267325 -0.030904971 -0.10505354
000340 52 2d 5e 3e e8 00 63 3e 6f cc de bd a6 f0 dd bd
       0.21696976 0.22168314 -0.10878836 -0.10836916
000350 97 a8 50 3d fa 20 13 3e e4 98 d1 3c 7e 19 91 bc
       0.05094203 0.14368048 0.0255856 -0.017712351
000360 8b b9 c9 3b 2a 11 97 3d 5f 88 e7 3d 1e 20 5b 3e
       0.0061561516 0.07376321 0.113053076 0.2139897
000370 8d e4 24 be 31 55 e8 3d 44 20 fd bb a7 57 6d 3d
       -0.1610281 0.11344374 -0.0077247936 0.05794492
000380 3f 15 19 3d 15 7e b7 bc 23 d3 50 3e 3d e8 b5 bd
       0.037373777 -0.022398988 0.20393042 -0.088821866
000390 a7 9b 07 be e8 1b a8 ba 36 c5 05 3e 73 a5 96 3b
       -0.1324297 -0.00128257 0.13063511 0.00459736
0003a0 e8 27 09 3d f3 77 88 3e a3 a6 de 3d bb 86 80 3d
       0.033485323 0.26654014 0.10871627 0.06275698
0003b0 b5 97 5b 3e 28 03 9c 3d 6b 85 19 be 8c 0e 9c bd
       0.2144459 0.076177895 -0.14992301 -0.07619962
0003c0 2f 37 07 be 28 c4 c0 3d 2b 1e 21 3e e3 ab e8 bc
       -0.13204645 0.09412414 0.15734164 -0.028402274
0003d0 00 82 b2 bd e0 29 47 3d 19 c0 f2 bd b3 0d 01 bf
       -0.08716202 0.04862392 -0.11853046 -0.5041153
0003e0 2a a4 5d bd 49 3e a2 3d 49 0a 11 3e ec 1b a4 3e
       -0.054111637 0.07922036 0.1416408 0.32052553
0003f0 f4 f3 11 3f e5 24 0f 3e fe a8 1b 3d b4 f4 09 be
       0.5701287 0.13978918 0.03800296 -0.13472253

bnorm_temporal.weight f4 [8]
000000 fc 0b 84 3f f9 87 82 3f e2 86 81 3f 7b 38 81 3f
       1.0316157 1.0197746 1.0119288 1.0095361
000010 2b 63 7e 3f 5c 0c 85 3f f0 56 87 3f 51 52 84 3f
       0.9937007 1.0394397 1.0573406 1.0337621

bnorm_temporal.bias f4 [8]
000000 0b 68 b9 b4 98 e4 b9 33 46 6f 82 b3 de 71 4b 33
       -3.4534636e-07 8.656315e-08 -6.073837e-08 4.7368182e-08
000010 7c 12 48 33 cf 62 b1 34 16 16 8c 33 1a a8 0d 34
       4.658294e-08 3.3040712e-07 6.5232754e-08 1.3192803e-07

bnorm_temporal.running_mean f4 [8]
000000 79 ad de 39 f0 f7 aa 3c 17 5a 33 bb 13 84 3b bc
       0.00042472387 0.020870179 -0.002736693 -0.011445063
000010 cb 95 5e bd 43 13 c8 3b 57 e3 3d 3b 4a 56 5c 3c
       -0.054342072 0.006105812 0.0028974616 0.013448307

bnorm_temporal.running_var f4 [8]
000000 e0 f6 c3 3e 78 7c d0 3e ca 1b 10 3f 8a 37 74 40
       0.38274288 0.40719962 0.562924 3.8158898
000010 3d 94 c8 40 35 98 38 3f f2 00 67 3f 8a a0 99 3f
       6.2680955 0.7210725 0.9023582 1.2002118

conv_spatial.parametrizations.weight.original f4 [16, 1, 4, 1]
000000 14 26 dd bd 40 f2 3b 3e 70 cf 0c bd a4 dd 78 3e
       -0.107982785 0.1835413 -0.034377515 0.24303299
000010 48 a8 16 3e bf ef 4c be 40 5d a5 bc 2a 4d 83 3e
       0.14712632 -0.20013331 -0.020186067 0.2564481
000020 df 98 0f be 5a 37 d6 bd bf 38 8c be 7c 68 96 3e
       -0.1402316 -0.10459776 -0.27387044 0.2937659
000030 82 2b 6f be d8 be 8b 3e b1 1b 1d be 50 88 b8 bc
       -0.2335644 0.2729404 -0.15342595 -0.022525936
000040 ee b7 c8 bd 73 b7 73 be 3a f7 80 3e e6 53 85 3e
       -0.09800707 -0.23800449 0.2518862 0.26040572
000050 e6 df 4d be 2e 0d 8e bd 32 c8 1c be ba ea 88 3e
       -0.20104942 -0.069361076 -0.15310743 0.26741582
000060 24 b2 f9 3d ec 4b 8f 3e 66 c3 d7 bd cc fa 55 be
       0.12192181 0.2798761 -0.10535316 -0.20896453
000070 44 e7 55 be 8e 1f 12 be 48 8d 39 be 64 e0 06 3e
       -0.20889002 -0.1426985 -0.18120301 0.13171536
000080 f8 30 95 bd c6 b8 df bd 3c bb 68 3e 3a 77 92 be
       -0.07284731 -0.109239146 0.22727674 -0.28606588
000090 0c ff 79 3e 96 9d 0c 3e 64 be 67 bd 6c 03 1c be
       0.24413699 0.1373199 -0.056578055 -0.1523568
0000a0 40 9e 63 3c 54 26 1b be 00 7b 08 3e 28 ab 75 3e
       0.01389271 -0.1515134 0.13328171 0.23991072
0000b0 10 99 f6 3c f4 f1 0e be a4 9e 85 3e 40 51 52 3e
       0.030102283 -0.13959485 0.26097596 0.20538807
0000c0 48 ff 7a be 6a 4d b9 bd 88 3c 96 be fc a6 6b be
       -0.24511445 -0.09047969 -0.29343057 -0.23012918
0000d0 f4 fc 9e bd 74 d4 b0 3d ea 13 49 3e 72 70 de bd
       -0.07763091 0.08634272 0.19636503 -0.10861291
0000e0 18 62 4a bd 50 fa 3d 3d 86 ef b5 bd 80 b8 28 3b
       -0.049409956 0.046381295 -0.08883576 0.0025744736
0000f0 30 76 90 3e 66 54 32 be 5c 0e 6b be a8 4f 11 3d
       0.2821517 -0.17415008 -0.22954696 0.035476357

bnorm_1.weight f4 [16]
000000 33 e2 2b 40 e3 61 14 40 2d c5 16 40 7b 70 cb 3f
       2.685681 2.3184745 2.3557847 1.5893701
000010 55 c0 77 3f c9 80 e9 3f 48 05 c0 3f d7 5f f9 3f
       0.9677785 1.8242427 1.5001612 1.9482373
000020 16 b4 91 3f c0 38 1c 3f 17 bf 19 40 1c 3b 25 40
       1.1383083 0.61024094 2.4022882 2.5817327
000030 65 ff 1e 40 c2 e8 62 40 95 57 3e 40 48 db f9 3f
       2.484338 3.5454564 2.9740956 1.9520044

bnorm_1.bias f4 [16]
000000 c1 34 b1 bf 21 bc 70 bf 91 1e bd bf 8c f0 0f be
       -1.3844224 -0.9403706 -1.4774953 -0.14056605
000010 89 5e 90 3c 69 59 eb be 2b 0c 62 bd 5f 40 32 bf
       0.017623203 -0.45966652 -0.055187386 -0.6962947
000020 50 c3 b5 be 58 28 ac bb a0 86 a1 bf a5 77 bf bf
       -0.35500574 -0.005253833 -1.2619209 -1.4958388
000030 de fe 9e bf 30 c7 06 c0 d2 59 f0 bf 54 45 86 be
       -1.2421529 -2.1059074 -1.8777411 -0.26224768

bnorm_1.running_mean f4 [16]
000000 46 a0 2d 38 8e e6 0a b8 8e 54 76 3a ec 9a 82 3a
       4.139568e-05 -3.3116485e-05 0.0009396755 0.0009964383
000010 ca 4b 1a 39 06 04 ad b7 ef 61 95 39 2b 01 3d b9
       0.00014714818 -2.062508e-05 0.0002849246 -0.0001802488
000020 ab 60 84 39 33 19 e2 39 63 50 bd b8 bb 03 11 b9
       0.00025249025 0.00043124854 -9.0271955e-05 -0.00013829667
000030 37 73 8b 38 87 94 1a 38 6c 49 8d 37 0a 7e 8a b9
       6.649497e-05 3.6854788e-05 1.68427e-05 -0.00026415318

bnorm_1.running_var f4 [16]
000000 0b 10 d3 3d bd 54 04 3e eb 55 04 3e 55 fe 16 3e
       0.10305794 0.1292295 0.129234 0.14745457
000010 fe 34 1e 3e 9b 09 e7 3d 2b a8 cc 3c e0 63 17 3e
       0.15449902 0.11281129 0.024982532 0.14784193
000020 c2 b3 89 3d d7 53 0a 3d 17 be bc 3d 41 ed 17 3e
       0.06723739 0.033771362 0.09215944 0.14836599
000030 cd c9 ee 3e 7b 49 2e 3d 03 03 58 3c 3a 5e 09 3e
       0.46638337 0.042550545 0.013184312 0.13414851

conv_separable_depth.weight f4 [16, 1, 1, 16]
000000 dd eb 50 be 25 a9 fd 3e 1e 92 4a 3e 87 92 3f 3e
       -0.20402475 0.4954311 0.19782302 0.1870824
000010 02 66 e5 b9 e2 34 93 bb 7a 67 76 bc bc d9 b7 bd
       -0.00043754285 -0.004492388 -0.015039319 -0.089770764
000020 4e 56 8f be cf a4 1b be 5f 43 bd 3d 94 fe 2c 3c
       -0.27995533 -0.15199588 0.09241366 0.010558743
000030 05 80 da 3c c8 9b 4e be c0 ac 1b bc 36 08 0a be
       0.026672373 -0.20176613 -0.009501636 -0.13479695
000040 28 76 13 3e 57 f4 90 3d a3 3c 45 3d c5 6f 0f 3e
       0.14400542 0.07077854 0.04815353 0.1400748
000050 56 33 bb 3a c1 79 32 3e a1 15 0b 3e a8 0d 12 3e
       0.0014282267 0.17429258 0.1358247 0.14263022
000060 b5 7f 57 3d 28 75 f2 bc cf bd 96 3d 99 e7 21 3e
       0.052612025 -0.02959688 0.07360422 0.15811004
000070 ec e4 0a 3d 82 49 b4 bd 4a de 01 ba 38 44 6a be
       0.033909723 -0.08803083 -0.0004954083 -0.22877586
000080 eb 5a a6 be a6 d8 72 be 60 db 30 3e a8 77 da be
       -0.3249124 -0.23715457 0.17271185 -0.42669415
000090 be 7c ca bd fd 3d ca 3d 6a 2b 65 3e 68 74 f1 3e
       -0.09887074 0.098751046 0.22379842 0.47159123
0000a0 6f ea 88 bc 81 26 55 be a7 71 fb 3d 72 b0 2e bd
       -0.01671335 -0.2081547 0.12277537 -0.04264874
0000b0 e5 3a 02 be 54 f4 21 3c d8 ee 8a 3d 30 03 2c 3c
       -0.12717779 0.0098849125 0.06783837 0.010498807
0000c0 94 1a a8 bd 07 93 c3 be 78 75 e8 bd f4 0c c1 3d
       -0.082081944 -0.3819811 -0.113505304 0.09426299
0000d0 8f 12 43 3e 92 c1 82 3e 4e 0a 91 3e 46 fa 65 bd
       0.19050048 0.25538307 0.28328174 -0.056146882
0000e0 93 8f 2a 3d 21 9e 33 be 49 4a 83 be 3c 28 04 be
       0.04164083 -0.1754079 -0.25642613 -0.12905973
0000f0 3d 5f 8c 3e 84 e4 42 be b2 4f 95 3d de 4f e4 3e
       0.2741641 -0.19032484 0.07290591 0.44592184
000100 9a c5 21 bc 22 ad 99 3e 56 24 ea 3d 69 91 12 bc
       -0.009873772 0.30014902 0.11432712 -0.008945801
000110 98 db f8 bd 94 a1 24 be 5f 39 fc 3d 00 59 33 bc
       -0.12151259 -0.16077262 0.1231563 -0.010946512
000120 be 44 e0 3d 52 17 46 be 9f 5e ab be c1 bc 98 3e
       0.109506115 -0.19344833 -0.33470628 0.29831508
000130 a4 bd cb 3d 2d 2b a5 3e 56 85 16 be 22 7f 84 be
       0.099482805 0.32259503 -0.14699301 -0.25878245
000140 08 f1 0b bf 47 ff e0 3e 2b 19 fc 3d 2b b7 c2 3e
       -0.5466466 0.4394476 0.12309488 0.3803037
000150 82 7d 44 3e b5 ac a6 3d 2f e5 12 be f0 8b 56 be
       0.19188502 0.0813841 -0.14345239 -0.2095182
000160 3f e3 92 be 85 54 b4 3d 8a 24 84 3e 80 87 07 3e
       -0.28689 0.08805183 0.25809127 0.13235283
000170 c5 da 19 3e c2 4c f5 bb 25 8b 2a be 43 02 42 bd
       0.1502486 -0.007485957 -0.16654642 -0.04736544
000180 bc f2 57 bc 3c 1f 86 be ed 06 ee 3e 62 b2 31 bd
       -0.013180431 -0.26195705 0.4648966 -0.04338301
000190 d5 1f 9b be be b2 3b bb e3 7e 09 3f 00 78 93 3e
       -0.30297723 -0.0028640474 0.5370924 0.2880249
0001a0 e6 b5 b5 be f8 f7 e9 bd 24 50 5a bb 5c 6c e9 3d
       -0.3549034 -0.114242494 -0.0033311928 0.11397621
0001b0 3f d8 d0 3c e4 55 75 3d 63 de be 3d 72 a4 77 bc
       0.02549374 0.059896365 0.09319761 -0.01511489
0001c0 1b a5 4e be cd 7f e6 be ae 82 52 3f d6 ef 09 be
       -0.2018017 -0.4501938 0.8223065 -0.13470396
0001d0 da 71 99 be 9a b5 a6 be f9 dd ba 3e 13 38 c7 3d
       -0.29969674 -0.32560426 0.36497477 0.09727492
0001e0 8f 10 5e bd 0f 27 8a be c0 0f 46 3e e1 c0 89 3d
       -0.05421501 -0.26982924 0.19341946 0.06726242
0001f0 3d a1 8e bd 92 af 11 bd 09 58 cb 3d e3 a4 01 3e
       -0.069643475 -0.035567828 0.09928901 0.12660556
000200 2a a4 d9 bd fb 41 1d 3d e0 19 31 3d 02 42 f7 bd
       -0.10627015 0.038393002 0.043237567 -0.12073137
000210 cf b9 b5 be bb 65 61 be 4e 92 b9 3d b4 bd 55 3e
       -0.35493323 -0.22011463 0.090611085 0.20873147
000220 11 f9 d0 bd 3c 16 53 3e 60 ef c8 3d 8a ad 97 3e
       -0.10203756 0.2061395 0.09811282 0.29624587
000230 c9 5c 99 3c 06 6e bf 3d b8 23 1f be 52 e6 c6 bd
       0.018721001 0.09347157 -0.1554097 -0.09711899
000240 80 fd f5 bd 5b 78 68 3d 4d 3c 48 3e 56 95 0e 3e
       -0.12011242 0.056755405 0.19554253 0.13924155
000250 02 b4 b5 3e 11 5e 06 be 5d bf 4d be e6 20 38 be
       0.35488898 -0.13121821 -0.2009253 -0.179813
000260 4a 1c f8 be 90 27 22 be a1 67 cc bd 9e bb b9 3d
       -0.48459083 -0.15835404 -0.09980703 0.09068988
000270 c4 bc d4 3d 55 eb 5d 3e c7 77 19 3d b2 a6 8c 3e
       0.10387567 0.21671803 0.037467744 0.27470928
000280 99 7d 8e bd 28 7c 5e be 68 9e a3 3d 16 51 40 3e
       -0.069575496 -0.2172705 0.07989198 0.18780932
000290 36 d7 10 3e c4 88 b6 3d 31 38 8f bd 8e 4e 5b 3e
       0.14144596 0.08912805 -0.069931395 0.21416685
0002a0 2d c0 85 be 36 ff a6 be 39 ec 45 be 4d 3c 48 3e
       -0.2612318 -0.32616585 -0.19328393 0.19554253
0002b0 c9 35 2c 3e 91 f4 3b 3e aa 94 55 3d ad d1 36 3e
       0.16817392 0.18355013 0.05214373 0.17853422
0002c0 d6 7f 63 be 16 fb b8 3d 1d 21 61 bd 3b 0a 2e 3e
       -0.22216734 0.09032266 -0.05496322 0.1699609
0002d0 42 22 83 bd e4 4d b7 bd 74 37 2e bf 26 d2 1d 3f
       -0.064030185 -0.08950403 -0.68053365 0.61648786
0002e0 f9 7d 9d bd c8 40 38 3e 83 8e 7c 3e df 99 05 be
       -0.07690043 0.17993462 0.24663739 -0.13046978
0002f0 39 00 03 be 95 d2 21 3d 9b 9f 71 be 63 5b 13 bd
       -0.12793054 0.039507467 -0.23596041 -0.035975825
000300 c4 70 ee bd 63 ea 77 3d e8 8c 0e 3e 9b 96 51 3d
       -0.11642602 0.060526263 0.13920939 0.05116902
000310 2c 56 83 3e b7 d5 51 3c 12 09 1b bd a4 48 44 3e
       0.2565168 0.012807301 -0.037850447 0.19168335
000320 98 37 30 3d 27 b1 5c 3d 0b f6 93 3d 63 c5 87 be
       0.04302177 0.053879883 0.07224663 -0.26517782
000330 5d b7 45 be 53 95 b3 bd 58 db 4e 3e ed ce c9 bd
       -0.19308229 -0.08768716 0.2020086 -0.09853921
000340 15 9a 84 bd b0 7e 7c be b1 f5 68 bd cb 20 70 be
       -0.06474701 -0.24657702 -0.056874935 -0.2345001
000350 d4 e8 ca 3e f7 e0 20 3d 72 39 34 bd 12 03 69 bd
       0.3963076 0.039277043 -0.044000097 -0.056887694
000360 86 86 d4 bd a3 65 2e be 92 a5 6f 3e 81 ad 3e be
       -0.10377221 -0.17030959 0.23403004 -0.18620874
000370 6a e6 84 be d1 74 ba bc c5 92 b6 bd b6 2d 92 be
       -0.25957042 -0.02276078 -0.08914713 -0.285505
000380 99 49 46 be ad 39 27 3e 87 46 3c be 03 25 c2 be
       -0.19364013 0.16330595 -0.18386279 -0.37918863
000390 70 8e 70 3e 83 0c 8d 3e 3d 4b 7f 3e 7a 57 88 bd
       0.23491836 0.27548608 0.24931045 -0.0665731
0003a0 cf df 96 be 51 cf dd be 8e 6a 9c be d0 9b 7a 3d
       -0.29467627 -0.43322232 -0.30550045 0.06118375
0003b0 4a a8 13 3e fd 49 1a be 82 3f 9e 3c 8f b1 bd 3b
       0.14419666 -0.15067287 0.019317392 0.005788989
0003c0 50 2d 52 3e ae 72 33 bf a2 7c 20 bf 95 81 de bc
       0.20525098 -0.7009686 -0.62690175 -0.027161399
0003d0 94 88 6b 3e e4 d7 9c 3e 8f 5b 33 be 44 bc 1c be
       0.23001319 0.3063346 -0.17515396 -0.15306193
0003e0 bf 2f 1f 3e 3c 9c 98 bd c1 b7 5a bd bb 87 e6 bd
       0.15545557 -0.07451674 -0.053397898 -0.11256357
0003f0 89 c5 04 be 99 14 92 3e 19 74 c0 3b d8 e9 34 be
       -0.12965979 0.2853134 0.005873215 -0.1766733

conv_separable_point.weight f4 [16, 16, 1, 1]
000000 27 35 37 be 6d 8d 91 bd 47 8b 2b be bf c1 eb bd
       -0.1789137 -0.07107053 -0.16752349 -0.115115635
000010 8f 36 3c bd 43 30 f2 bd e9 1b c8 3d 84 f3 a8 3e
       -0.04595047 -0.118256114 0.097709484 0.32998288
000020 0a 4f 97 bd e4 a7 73 bd 8d 17 a2 3c a4 29 b5 be
       -0.073881224 -0.059486285 0.01978662 -0.35383332
000030 e3 ca 95 3d b2 c1 18 3e bf 03 26 bd 5d 69 20 3f
       0.07314088 0.14917639 -0.040530916 0.6266077
000040 19 d7 25 be 05 e0 32 bd 1a fd 85 be 76 91 9f bd
       -0.16195334 -0.043670673 -0.26169664 -0.07791416
000050 75 39 08 be 05 fa 73 be 9c 54 f7 3d ce de c8 3e
       -0.13303168 -0.23825844 0.12076685 0.39232486
000060 15 93 08 bd 54 fb b1 bd 5e 43 d0 3c 1d 00 ce be
       -0.033343393 -0.08690515 0.025422748 -0.4023446
000070 7f 19 e5 bb e7 2c 4c 3e c5 6c c1 bc d9 f7 15 3f
       -0.0069915648 0.19939004 -0.023611436 0.5858131
000080 ff 8e d0 bd 3b 36 8f be 54 09 de be c7 52 17 be
       -0.10183524 -0.27971062 -0.43366492 -0.14777671
000090 c1 d0 35 be 66 0e 25 bf 55 73 32 3e b6 07 49 3e
       -0.17755415 -0.64475095 0.17426808 0.19631848
0000a0 13 29 c5 bd eb 37 45 be 0d 3c 8b ba 76 6e 91 be
       -0.09626975 -0.19259612 -0.0010622755 -0.28404588
0000b0 3f e7 df bb 52 c1 8b 3e ba e0 1a bc 33 fb 0d 3f
       -0.0068329866 0.2729593 -0.009452993 0.55461425
0000c0 22 a7 b3 be 01 e8 03 3d 6f ce bb bd 47 09 3c 3e
       -0.3508845 0.032203678 -0.091702335 0.18362914
0000d0 2d a8 48 be 63 93 75 be 24 80 85 3e 42 29 4a 3e
       -0.19595404 -0.23982005 0.26074326 0.19742301
0000e0 0b 2c 61 be 03 11 71 bd d0 6b f7 3c e1 7d 57 bd
       -0.21989457 -0.058854114 0.030202776 -0.05261028
0000f0 ff 87 7f bd 1c bd e9 bb 73 55 21 3f 7c 0b a4 3e
       -0.062385555 -0.0071331393 0.6302101 0.32040012
000100 c8 5d cd bd 5f ad d4 3d c2 f2 86 bb 54 cc 8e 3e
       -0.10027653 0.103846304 -0.0041182945 0.27890265
000110 d7 d5 ba be db ab 99 be a2 85 87 3b d7 ed d0 3e
       -0.36491272 -0.30013928 0.0041358033 0.40806457
000120 a5 fa 93 bd 41 29 82 bc 91 17 d4 3d fd a0 a2 be
       -0.07225541 -0.015888812 0.103560574 -0.3176345
000130 97 b9 b9 be 9e 6f f2 3e 5d b2 83 3e 80 ae db bd
       -0.36274406 0.47350782 0.25722018 -0.107266426
000140 5e bd c8 3e 21 53 4c ba 78 4f 7a 3e f7 20 70 be
       0.39206976 -0.00077943696 0.24444377 -0.23450075
000150 41 9d ce 3e 34 99 c2 be 2f 7c b3 bb da af 90 bd
       0.4035435 -0.3800751 -0.0054774503 -0.07064791
000160 8c 0e 8a 3e fb 44 da 3e 7d 48 fb be bd bf df 3d
       0.26964223 0.42630753 -0.49078742 0.10925243
000170 d9 d3 40 be b3 6e 5e bd c8 e2 1a 3e 1a 08 c2 3d
       -0.18830813 -0.05430479 0.15125573 0.094742015
000180 89 56 b9 3e 82 81 86 be a0 53 d8 be 18 44 79 bc
       0.36198834 -0.26270682 -0.422513 -0.015213989
000190 22 b3 ca be 0a 99 91 3e 78 74 25 bf e3 bf 52 bd
       -0.39589792 0.28437072 -0.6463084 -0.05145253
0001a0 b6 01 f1 bc 99 63 3a be e4 80 a2 3e 76 15 e0 3d
       -0.029419761 -0.18202056 0.3173896 0.10941593
0001b0 2b 45 c1 3e 15 38 b9 3d 3a 0c cd 3d c6 c5 df bd
       0.37748083 0.090439 0.10012098 -0.10926394
0001c0 61 03 af be f0 45 ef be 66 9d 80 bd fc 16 1d 3d
       -0.34182265 -0.46733046 -0.06280021 0.038351998
0001d0 4e 4e 6f 3e 86 63 72 be eb 84 65 bd 3e fc b8 be
       0.23369715 -0.23670778 -0.056034964 -0.36129946
0001e0 fd 6c 09 3e 41 dc 1d 3e 00 2e 78 be 13 a4 92 3e
       0.13420482 0.15416051 -0.24236298 0.28640804
0001f0 72 1b 06 be 64 c5 d2 be 8e 30 fd 3e 77 88 24 3e
       -0.13096407 -0.41166222 0.49451107 0.16067682
000200 6a 52 9a bd d6 46 87 bd eb e5 5c 3e 76 4e a7 bd
       -0.075352505 -0.06605308 0.21572082 -0.08169262
000210 fa 1c b4 3e c2 9a 9c be 57 11 8d be be ef 1f bd
       0.35178357 -0.3058682 -0.27552292 -0.039046995
000220 50 69 7f 3e 99 91 ca 3e 75 b5 84 be ce fe 04 3e
       0.24942517 0.39564207 -0.2591969 0.12987825
000230 c6 f0 99 3c 60 a0 dc bc 89 dd 0c bd 24 28 c3 3d
       0.018791568 -0.026931942 -0.03439096 0.095291406
000240 21 bf 00 3f b8 17 1a bf db 63 0b 3e 66 53 97 be
       0.5029164 -0.6019244 0.1361231 -0.29555815
000250 de f0 2e bd 9e a7 93 be c0 c9 9e be 30 03 0e 3e
       -0.042710178 -0.2883882 -0.31013298 0.13868403
000260 ad 94 70 be 12 d9 52 be 14 f6 d2 bc a5 39 17 3d
       -0.23494215 -0.20590618 -0.025752105 0.03692021
000270 18 43 c4 3e 41 d2 4a 3e e2 7c 2c be ed 54 33 3e
       0.38332438 0.19806768 -0.16844514 0.17512865
000280 eb 6b 27 3e 3f b4 eb be 61 e1 45 be 33 e2 9b be
       0.16349761 -0.46035954 -0.19324256 -0.30446014
000290 1f 0d e6 bd a0 aa a0 be 81 ae 75 3d 4e da 48 3d
       -0.112329714 -0.31380177 0.059980873 0.049036317
0002a0 a3 31 be 3c 44 c5 f4 bd e8 c6 cb bc c9 de f3 bd
       0.023217028 -0.11951688 -0.02487512 -0.11907727
0002b0 87 a0 ed 3e 21 a4 03 3f 37 a0 33 be 5f eb 6a 3e
       0.46411535 0.51422316 -0.17541586 0.2294135
0002c0 35 b0 cd be 60 cf f0 3d b9 c8 1f 3e 7a b0 33 bd
       -0.40173498 0.11758304 0.15603913 -0.043869473
0002d0 a8 a0 ea bd 3f 39 0b be 98 c2 6d 3c 1e 78 40 be
       -0.11456424 -0.13596056 0.014511727 -0.18795821
0002e0 b2 fc 87 bd 0b 36 00 3e c4 96 75 3d 5a e1 17 3f
       -0.06639995 0.12520616 0.059958234 0.59328234
0002f0 3e 81 ca be b5 08 b1 3d 83 4b b4 3e 76 16 fd bd
       -0.3955173 0.08644239 0.3521386 -0.123578
000300 af 28 a7 3e e3 38 6f 3d 7c 70 61 3e e8 22 9d be
       0.32648227 0.05840386 0.22015566 -0.30690694
000310 10 9b 00 3f ea 2c d9 be 8b cf 48 3d 6a 7a 0a be
       0.50236607 -0.4241708 0.049026053 -0.1352326
000320 bf 02 a2 3e 4f 6d df 3e b3 9a c6 be 74 7d 0a 3e
       0.3164272 0.43638083 -0.387899 0.13524419
000330 5a 8b 1c be 97 57 81 bd b5 1d 27 3e e9 5e 8a 3d
       -0.15287533 -0.063155346 0.16319926 0.06756384
000340 9f ea 7b 3e 34 d0 0b be b1 9c a2 3e 0e 1b de be
       0.2460122 -0.13653642 0.3176017 -0.43380016
000350 42 b2 86 bd 30 11 b9 bd 78 88 c6 be 3f 2d 6c be
       -0.06576969 -0.090364814 -0.38775992 -0.23064135
000360 b5 09 8e 3e 72 a9 cc b9 3f ef ce be eb 89 1e 3e
       0.2774178 -0.0003903616 -0.40416905 0.15482299
000370 b6 4b a8 bd 10 eb 17 3d f4 f4 e1 3d 1b d2 0c bd
       -0.08217566 0.037089407 0.11033049 -0.03438006
000380 2f 63 86 bd 55 62 59 be ff c2 25 be 1d 93 98 3d
       -0.065618865 -0.21228917 -0.16187666 0.07449935
000390 54 4c d4 be 3a 22 8b 3e 96 45 fc be 92 d4 98 be
       -0.41464484 0.2717455 -0.4927184 -0.29849678
0003a0 35 21 78 bd 8b 48 01 be da bd c8 3c 76 ca 44 3e
       -0.060578544 -0.12625329 0.02450459 0.19217858
0003b0 66 dd d8 bb e3 52 1a 3e e7 65 4a 3d a7 ff 9b be
       -0.0066181896 0.15070681 0.049413588 -0.30468485
0003c0 67 60 a4 bd 29 f1 d6 bd 4b 0a 9a 3e fe 17 0d bf
       -0.080262 -0.104952164 0.30085978 -0.55114734
0003d0 b8 ec 43 3e 27 74 8e be 86 4c 6f be 09 56 bd be
       0.1913327 -0.27822992 -0.23369035 -0.36979702
0003e0 d8 3e b0 3e ca fb 86 3e 45 2e 85 be 00 d9 85 3e
       0.34422946 0.26363975 -0.26011863 0.2614212
0003f0 c3 f4 62 be 2c f0 6f 3d cf 0d 5b 3e 8f fc 58 be
       -0.22163682 0.058578655 0.21391986 -0.21190093

bnorm_2.weight f4 [16]
000000 48 e9 6f 3f 33 39 6d 3f 8a 86 b2 3f 47 08 91 3f
       0.93715334 0.92665404 1.3947308 1.1330651
000010 c4 c8 6c 3f 37 bb 22 40 d5 31 d0 3f 63 cc 6f 3f
       0.92493844 2.5426767 1.6265208 0.93671244
000020 47 7b 00 40 02 7e 03 40 cb 74 f1 3f 77 48 6a 3f
       2.0075243 2.054566 1.8863767 0.9151682
000030 23 c8 11 40 9a ca 11 40 b8 39 e2 3f de 33 e7 3f
       2.2778404 2.2779908 1.7673864 1.8062704

bnorm_2.bias f4 [16]
000000 14 7a d1 bd 35 76 f6 bd 0b ef 86 be 1e fe 43 be
       -0.10228363 -0.12034265 -0.2635425 -0.19139907
000010 c0 c8 2e be 24 3d a1 bf 9d 33 e7 be 28 b8 f7 bd
       -0.17068768 -1.2596784 -0.45156565 -0.12095672
000020 4b 9d 2b bf 26 3b 68 bf 62 a7 27 bf 25 25 1c be
       -0.67036885 -0.90715253 -0.6548978 -0.15248545
000030 bf 36 83 bf 08 2b 4a bf 68 7a ad be f6 7f 00 bf
       -1.0251082 -0.7897191 -0.3388245 -0.5019525

bnorm_2.running_mean f4 [16]
000000 b6 2a 35 be ca 78 2b be 96 96 26 be 04 5c 71 3d
       -0.17692074 -0.16745296 -0.16268381 0.058925644
000010 25 c3 e1 3d b5 79 1d 3d f3 a6 66 bd 33 50 03 3d
       0.11023549 0.038446147 -0.05631156 0.032058906
000020 52 9b 1d bd 2b 9e be bd 4f c3 9e bd e4 7d 0f 3e
       -0.038478203 -0.09307512 -0.07752096 0.14012867
000030 25 a8 29 3d 74 4a af 3c 52 a5 3f 3d 83 3e bc 3d
       0.04142012 0.021397807 0.04678852 0.09191611

bnorm_2.running_var f4 [16]
000000 db 28 01 40 1a 48 0a 40 ee 74 54 40 91 72 04 40
       2.0181186 2.1606507 3.3196368 2.0694926
000010 1b ae d5 3f 65 1f 92 3f 7c 8f b5 3f 30 76 e2 3f
       1.6693758 1.1415831 1.4184413 1.7692318
000020 92 98 39 3f 0f 80 96 3f 56 e8 ce 3f 66 dc a3 3f
       0.7249843 1.175783 1.6164653 1.2801635
000030 fe 3e 95 3f c0 42 6e 3f b2 d5 9d 3f 8b 0b ad 3f
       1.1659849 0.930706 1.233084 1.3519148

final_layer.conv_classifier.weight f4 [3, 16, 1, 24]
000000 c3 6e 3c bd f8 55 d8 bc bb bd ea bc 04 35 84 3c
       -0.046004068 -0.02640818 -0.028654924 0.016138561
000010 68 72 c6 3b ac d2 fa bc 8e fc 8d bc 62 5f 22 3d
       0.0060561188 -0.030618034 -0.017332342 0.039641745
000020 64 df 09 3c dc 16 09 3d 04 7f 00 bc b9 fd 2c bd
       0.008415077 0.033469066 -0.007842783 -0.042234156
000030 aa 75 20 3d 42 9b 99 bc 58 d5 3c bc d8 3a c3 3b
       0.039174713 -0.01875079 -0.0115254745 0.0059579425
000040 39 94 38 bd cd 2c f8 bc 2b 47 cb bc 8c 33 13 3d
       -0.04506323 -0.0302948 -0.024814209 0.03593783
000050 ab 0a 41 bd 64 37 71 bc 3c be 1d bc d0 a0 7d 3c
       -0.047129314 -0.014722679 -0.009627875 0.015480235
000060 6d 62 30 bd 5d e9 fc bc 2e ac 25 3d c0 56 4e 3b
       -0.043062616 -0.030872995 0.040447406 0.0031484812
000070 40 27 9b 3b 70 fb 65 3b fc 88 8b bc 16 dd 8a bc
       0.0047349036 0.0035092495 -0.017033093 -0.016951125
000080 00 4c b1 b9 b4 04 ef 3c c8 cd 8a bb 78 4a d9 3c
       -0.00033816695 0.029177047 -0.004235957 0.026524767
000090 17 f2 ed bc f8 9a 33 bc 74 b7 7a bc dc b5 67 bc
       -0.029046101 -0.01096224 -0.015302528 -0.01414248
0000a0 66 6a 21 3d 60 a1 4c bc 38 67 e2 3c a8 34 af bb
       0.03940811 -0.012489647 0.02763711 -0.0053468533
0000b0 c6 69 42 bd 0a e5 97 bc 98 b1 d4 3c 48 06 20 3c
       -0.047464155 -0.018541832 0.02596359 0.009767123
0000c0 50 59 f8 3b a0 37 34 3c 60 fa ae 3a 60 2a bd ba
       0.0075790063 0.01099959 0.0013349764 -0.0014432184
0000d0 10 99 f3 bb ac 32 b2 bc b4 f0 44 bc a8 89 ec 3c
       -0.007434018 -0.021752678 -0.012020279 0.028874233
0000e0 10 39 2c 3c c0 81 21 bb 48 9e a3 3b 38 81 c2 3b
       0.010511652 -0.0024643987 0.004993234 0.005935814
0000f0 00 60 8d 3c 66 c5 36 3d 30 5c 5a 3c 68 44 97 3b
       0.01725769 0.044621848 0.013327643 0.004616309
000100 e6 40 21 3d 2e 81 48 3d 50 d9 d6 3c a0 c4 35 bb
       0.039368533 0.04895132 0.02622667 -0.0027735606
000110 18 60 90 3c 86 6c 00 bd 64 f0 20 3d 50 7e f8 bb
       0.017623946 -0.031353496 0.039291754 -0.007583417
000120 04 ac d6 3c a0 5b 4e bb a0 97 56 bb fb ce ee bc
       0.02620507 -0.0031487718 -0.0032744184 -0.02915143
000130 90 b2 5b 3c 38 17 2e bd c8 5d 49 3c a0 f4 df 3c
       0.013409272 -0.042502612 0.012290426 0.027338326
000140 e4 44 88 bc 9e d0 49 3d b4 ad ea 3c c6 ab 0f 3d
       -0.016634412 0.04927122 0.028647281 0.035075925
000150 98 fd af bc 70 1d 56 bc 10 01 de bb 78 f8 02 bd
       -0.021483228 -0.013068542 -0.006775029 -0.03197524
000160 8c c1 e3 3c b7 d3 d7 bc aa 00 14 3d 11 86 fd bc
       0.027802251 -0.02634607 0.036133446 -0.030947717
000170 b0 ff 32 3d 64 47 da 3c d4 b6 ee bc 64 8f e2 bc
       0.043700874 0.02664537 -0.029139914 -0.027656265
000180 44 4a eb 3c d0 57 31 3d 20 6c 56 3b fc 1f e6 3c
       0.028721936 0.043296635 0.0032718256 0.028091423
000190 44 3f 04 3d c8 16 81 3c 9c 20 9b 3c e4 a7 02 bc
       0.032286897 0.015757933 0.018936448 -0.007974599
0001a0 3c f6 12 3d e8 e0 5c 3c 80 10 6c 3b 78 eb e1 3c
       0.03587936 0.013481356 0.0036020577 0.0275781
0001b0 30 13 e8 bb 68 de d6 bc b6 2f 4b 3d b0 80 c9 3c
       -0.0070823655 -0.026229098 0.049606048 0.024597496
0001c0 2c e8 a7 3c 8c 4e 0d 3d c2 e9 47 3d 06 06 0c bd
       0.02049645 0.034498736 0.048806913 -0.034185432
0001d0 24 63 27 3c 14 3a 83 3c 00 8e a3 38 80 08 c9 bb
       0.010216508 0.016018905 7.798895e-05 -0.0061350465
0001e0 70 ea 48 bc d6 b7 25 3d 30 43 ac bc 8c 01 95 3c
       -0.0122629255 0.040458523 -0.021028131 0.018189214
0001f0 b0 b4 ac bb 07 af c8 bc e3 49 32 bd d8 c3 ff 3b
       -0.005270563 -0.024497522 -0.043527495 0.007805329
000200 7a b3 80 bc bc 85 a8 3c 30 ec 36 bd 9c 61 4d 3d
       -0.015710581 0.020571582 -0.04465884 0.050141916
000210 06 ae 3f 3d c4 26 36 3d 88 7e 3c 3d b8 d9 e1 bb
       0.04679682 0.044470564 0.046019107 -0.006892409
000220 76 b9 25 3d 28 4d fb 3c f4 65 4b bc 90 4e 00 bb
       0.040460072 0.03067644 -0.012414444 -0.0019578077
000230 47 74 4f bd c3 18 e9 bc c8 95 c2 3c 4a 3e 8b bc
       -0.050648 -0.02845419 0.023753062 -0.016997475
000240 21 83 c3 bc 24 3b 38 3d de cb 15 bd 10 53 3a bc
       -0.023866238 0.044978276 -0.036571376 -0.011372343
000250 24 10 bf 3c 45 76 a3 bc 00 76 57 ba f2 43 44 3d
       0.023323126 -0.019953856 -0.00082191825 0.04791636
000260 40 d7 12 bc 86 9f 4c 3d a8 96 d8 3c 5c 40 3b 3c
       -0.008962452 0.04995682 0.026439026 0.011428919
000270 e0 e9 0a bc 90 5a d9 3b d4 9b 19 3c 98 d7 6f 3c
       -0.008478612 0.0066331103 0.009375531 0.014638804
000280 d4 b2 33 3c 78 c0 59 3c 68 9f 4e 3c 60 27 5d 3b
       0.010967929 0.013290517 0.012611248 0.0033745393
000290 a8 e1 8a 3c 90 32 e3 bb e0 d6 3f 3d 53 e9 e5 bc
       0.016953304 -0.0069335178 0.04683578 -0.02806536
0002a0 90 8d 7c 3c 50 63 0c 3d 20 fe 46 bb ef b6 32 bd
       0.0154146105 0.0342744 -0.0030363873 -0.04363149
0002b0 62 57 90 bc 42 5f d8 bc 00 5c e3 38 3c a8 c9 3c
       -0.017619792 -0.02641261 0.0001084134 0.024616353
0002c0 de 19 1c 3d 88 36 30 3d 0a 9c 88 bc 38 a2 2a bc
       0.038110606 0.043020755 -0.016675968 -0.0104146525
0002d0 90 05 82 3c 50 54 40 3d f6 11 21 3d ba 85 3d 3d
       0.015871793 0.046955407 0.03932377 0.04627011
0002e0 e4 18 48 bd 60 4d b5 3a f6 98 50 3d e1 23 0c bd
       -0.048851863 0.0013832264 0.050927125 -0.034213904
0002f0 a4 59 1e bd d4 e9 39 3d b0 75 b9 3b 7a e9 8e bc
       -0.038659707 0.04538901 0.0056597814 -0.017445315
000300 14 46 72 bc 14 13 91 3c ee 0a 26 3d c4 72 dc 3c
       -0.014787216 0.017709292 0.040537767 0.026910193
000310 08 5b f5 3b 79 9c 2b bd fe 3c ca bc fb a2 4b bd
       0.0074876584 -0.04189727 -0.024687286 -0.049715977
000320 78 ec 92 3b 62 63 b6 bc c0 2f 11 ba c0 4e 7a bc
       0.0044837557 -0.022264186 -0.00055384263 -0.0152775645
000330 0c ba 16 bd fc 9a ad 3c ec a8 07 bd ba 79 3b bd
       -0.036798522 0.021192066 -0.03312008 -0.045770384
000340 cc de f0 3c a0 2e 0d 3d 60 b6 21 bc 6a 7c 37 3d
       0.029403113 0.034468293 -0.009870142 0.044796385
000350 26 77 b5 bc e0 e4 ed bc 0c bb 21 3d 4c aa 9f 3c
       -0.022151541 -0.0290398 0.039485022 0.019490384
000360 d6 3d 17 3d 38 f2 96 3b 18 24 16 bc 6a f6 ea bc
       0.036924206 0.0046065114 -0.009163879 -0.028681953
000370 00 73 6b 3c 62 c0 d3 bc 9e b1 2a 3d da 69 17 3d
       0.01437068 -0.025848571 0.041673295 0.036966182
000380 d0 95 ce 3c 78 6a 30 bd d0 79 84 3c 68 98 ad 3c
       0.02521792 -0.043070287 0.016171366 0.021190837
000390 1a 57 37 3d 20 0f 4f 3c cd ac 31 bd 4b b4 c0 bc
       0.0447608 0.012637883 -0.043377686 -0.02352347
0003a0 58 0f 29 3c 2e 5a 34 3d 00 ec e6 3a 54 5e 0b 3c
       0.0103186 0.044031315 0.0017617941 0.008506376
0003b0 fa 71 02 3d 40 f0 81 3c 5c 41 58 bc c8 b6 7a bc
       0.031846978 0.01586163 -0.013199177 -0.0153023675
0003c0 dc 70 22 3c fa 62 07 3d f0 ef bf 3c 40 98 4c 3c
       0.009914603 0.033053376 0.02342984 0.012487471
0003d0 40 9c a1 bb 30 a1 9a bb cb 55 d3 bc 18 db db 3b
       -0.0049319565 -0.004718922 -0.025797745 0.0067094676
0003e0 ec ed 1d 3c 49 fe ce bc 34 a0 94 3c 84 8a 65 bc
       0.0096392445 -0.025267737 0.018142797 -0.0140100755
0003f0 86 f5 3c 3d 20 a7 29 bd d8 80 4a bd 2e e0 4b 3d
       0.046132587 -0.04141915 -0.04943928 0.04977434

final_layer.conv_classifier.bias f4 [3]
000000 00 00 00 00 00 00 00 00 00 00 00 00
       0.0 0.0 0.0
